…
/media/hermetico/2TB/frameworks/caffe/python/caffe/pycaffe.py:13: RuntimeWarning: to-Python converter for boost::shared_ptr<caffe::Solver<float> > already registered; second conversion method ignored.
  from ._caffe import Net, SGDSolver, NesterovSolver, AdaGradSolver, \
WARNING: Logging before InitGoogleLogging() is written to STDERR
I0703 20:45:45.289620  3512 net.cpp:49] Initializing net from parameters: 
name: "ActivitiesNet"
state {
  phase: TEST
}
layer {
  name: "data"
  type: "Input"
  top: "data"
  input_param {
    shape {
      dim: 10
      dim: 3
      dim: 224
      dim: 224
    }
  }
}
layer {
  name: "conv1/7x7_s2"
  type: "Convolution"
  bottom: "data"
  top: "conv1/7x7_s2"
  param {
    lr_mult: 1
    decay_mult: 1
  }
  param {
    lr_mult: 2
    decay_mult: 0
  }
  convolution_param {
    num_output: 64
    pad: 3
    kernel_size: 7
    stride: 2
    weight_filler {
      type: "xavier"
      std: 0.1
    }
    bias_filler {
      type: "constant"
      value: 0.2
    }
  }
}
layer {
  name: "conv1/relu_7x7"
  type: "ReLU"
  bottom: "conv1/7x7_s2"
  top: "conv1/7x7_s2"
}
layer {
  name: "pool1/3x3_s2"
  type: "Pooling"
  bottom: "conv1/7x7_s2"
  top: "pool1/3x3_s2"
  pooling_param {
    pool: MAX
    kernel_size: 3
    stride: 2
  }
}
layer {
  name: "pool1/norm1"
  type: "LRN"
  bottom: "pool1/3x3_s2"
  top: "pool1/norm1"
  lrn_param {
    local_size: 5
    alpha: 0.0001
    beta: 0.75
  }
}
layer {
  name: "conv2/3x3_reduce"
  type: "Convolution"
  bottom: "pool1/norm1"
  top: "conv2/3x3_reduce"
  param {
    lr_mult: 1
    decay_mult: 1
  }
  param {
    lr_mult: 2
    decay_mult: 0
  }
  convolution_param {
    num_output: 64
    kernel_size: 1
    weight_filler {
      type: "xavier"
      std: 0.1
    }
    bias_filler {
      type: "constant"
      value: 0.2
    }
  }
}
layer {
  name: "conv2/relu_3x3_reduce"
  type: "ReLU"
  bottom: "conv2/3x3_reduce"
  top: "conv2/3x3_reduce"
}
layer {
  name: "conv2/3x3"
  type: "Convolution"
  bottom: "conv2/3x3_reduce"
  top: "conv2/3x3"
  param {
    lr_mult: 1
    decay_mult: 1
  }
  param {
    lr_mult: 2
    decay_mult: 0
  }
  convolution_param {
    num_output: 192
    pad: 1
    kernel_size: 3
    weight_filler {
      type: "xavier"
      std: 0.03
    }
    bias_filler {
      type: "constant"
      value: 0.2
    }
  }
}
layer {
  name: "conv2/relu_3x3"
  type: "ReLU"
  bottom: "conv2/3x3"
  top: "conv2/3x3"
}
layer {
  name: "conv2/norm2"
  type: "LRN"
  bottom: "conv2/3x3"
  top: "conv2/norm2"
  lrn_param {
    local_size: 5
    alpha: 0.0001
    beta: 0.75
  }
}
layer {
  name: "pool2/3x3_s2"
  type: "Pooling"
  bottom: "conv2/norm2"
  top: "pool2/3x3_s2"
  pooling_param {
    pool: MAX
    kernel_size: 3
    stride: 2
  }
}
layer {
  name: "inception_3a/1x1"
  type: "Convolution"
  bottom: "pool2/3x3_s2"
  top: "inception_3a/1x1"
  param {
    lr_mult: 1
    decay_mult: 1
  }
  param {
    lr_mult: 2
    decay_mult: 0
  }
  convolution_param {
    num_output: 64
    kernel_size: 1
    weight_filler {
      type: "xavier"
      std: 0.03
    }
    bias_filler {
      type: "constant"
      value: 0.2
    }
  }
}
layer {
  name: "inception_3a/relu_1x1"
  type: "ReLU"
  bottom: "inception_3a/1x1"
  top: "inception_3a/1x1"
}
layer {
  name: "inception_3a/3x3_reduce"
  type: "Convolution"
  bottom: "pool2/3x3_s2"
  top: "inception_3a/3x3_reduce"
  param {
    lr_mult: 1
    decay_mult: 1
  }
  param {
    lr_mult: 2
    decay_mult: 0
  }
  convolution_param {
    num_output: 96
    kernel_size: 1
    weight_filler {
      type: "xavier"
      std: 0.09
    }
    bias_filler {
      type: "constant"
      value: 0.2
    }
  }
}
layer {
  name: "inception_3a/relu_3x3_reduce"
  type: "ReLU"
  bottom: "inception_3a/3x3_reduce"
  top: "inception_3a/3x3_reduce"
}
layer {
  name: "inception_3a/3x3"
  type: "Convolution"
  bottom: "inception_3a/3x3_reduce"
  top: "inception_3a/3x3"
  param {
    lr_mult: 1
    decay_mult: 1
  }
  param {
    lr_mult: 2
    decay_mult: 0
  }
  convolution_param {
    num_output: 128
    pad: 1
    kernel_size: 3
    weight_filler {
      type: "xavier"
      std: 0.03
    }
    bias_filler {
      type: "constant"
      value: 0.2
    }
  }
}
layer {
  name: "inception_3a/relu_3x3"
  type: "ReLU"
  bottom: "inception_3a/3x3"
  top: "inception_3a/3x3"
}
layer {
  name: "inception_3a/5x5_reduce"
  type: "Convolution"
  bottom: "pool2/3x3_s2"
  top: "inception_3a/5x5_reduce"
  param {
    lr_mult: 1
    decay_mult: 1
  }
  param {
    lr_mult: 2
    decay_mult: 0
  }
  convolution_param {
    num_output: 16
    kernel_size: 1
    weight_filler {
      type: "xavier"
      std: 0.2
    }
    bias_filler {
      type: "constant"
      value: 0.2
    }
  }
}
layer {
  name: "inception_3a/relu_5x5_reduce"
  type: "ReLU"
  bottom: "inception_3a/5x5_reduce"
  top: "inception_3a/5x5_reduce"
}
layer {
  name: "inception_3a/5x5"
  type: "Convolution"
  bottom: "inception_3a/5x5_reduce"
  top: "inception_3a/5x5"
  param {
    lr_mult: 1
    decay_mult: 1
  }
  param {
    lr_mult: 2
    decay_mult: 0
  }
  convolution_param {
    num_output: 32
    pad: 2
    kernel_size: 5
    weight_filler {
      type: "xavier"
      std: 0.03
    }
    bias_filler {
      type: "constant"
      value: 0.2
    }
  }
}
layer {
  name: "inception_3a/relu_5x5"
  type: "ReLU"
  bottom: "inception_3a/5x5"
  top: "inception_3a/5x5"
}
layer {
  name: "inception_3a/pool"
  type: "Pooling"
  bottom: "pool2/3x3_s2"
  top: "inception_3a/pool"
  pooling_param {
    pool: MAX
    kernel_size: 3
    stride: 1
    pad: 1
  }
}
layer {
  name: "inception_3a/pool_proj"
  type: "Convolution"
  bottom: "inception_3a/pool"
  top: "inception_3a/pool_proj"
  param {
    lr_mult: 1
    decay_mult: 1
  }
  param {
    lr_mult: 2
    decay_mult: 0
  }
  convolution_param {
    num_output: 32
    kernel_size: 1
    weight_filler {
      type: "xavier"
      std: 0.1
    }
    bias_filler {
      type: "constant"
      value: 0.2
    }
  }
}
layer {
  name: "inception_3a/relu_pool_proj"
  type: "ReLU"
  bottom: "inception_3a/pool_proj"
  top: "inception_3a/pool_proj"
}
layer {
  name: "inception_3a/output"
  type: "Concat"
  bottom: "inception_3a/1x1"
  bottom: "inception_3a/3x3"
  bottom: "inception_3a/5x5"
  bottom: "inception_3a/pool_proj"
  top: "inception_3a/output"
}
layer {
  name: "inception_3b/1x1"
  type: "Convolution"
  bottom: "inception_3a/output"
  top: "inception_3b/1x1"
  param {
    lr_mult: 1
    decay_mult: 1
  }
  param {
    lr_mult: 2
    decay_mult: 0
  }
  convolution_param {
    num_output: 128
    kernel_size: 1
    weight_filler {
      type: "xavier"
      std: 0.03
    }
    bias_filler {
      type: "constant"
      value: 0.2
    }
  }
}
layer {
  name: "inception_3b/relu_1x1"
  type: "ReLU"
  bottom: "inception_3b/1x1"
  top: "inception_3b/1x1"
}
layer {
  name: "inception_3b/3x3_reduce"
  type: "Convolution"
  bottom: "inception_3a/output"
  top: "inception_3b/3x3_reduce"
  param {
    lr_mult: 1
    decay_mult: 1
  }
  param {
    lr_mult: 2
    decay_mult: 0
  }
  convolution_param {
    num_output: 128
    kernel_size: 1
    weight_filler {
      type: "xavier"
      std: 0.09
    }
    bias_filler {
      type: "constant"
      value: 0.2
    }
  }
}
layer {
  name: "inception_3b/relu_3x3_reduce"
  type: "ReLU"
  bottom: "inception_3b/3x3_reduce"
  top: "inception_3b/3x3_reduce"
}
layer {
  name: "inception_3b/3x3"
  type: "Convolution"
  bottom: "inception_3b/3x3_reduce"
  top: "inception_3b/3x3"
  param {
    lr_mult: 1
    decay_mult: 1
  }
  param {
    lr_mult: 2
    decay_mult: 0
  }
  convolution_param {
    num_output: 192
    pad: 1
    kernel_size: 3
    weight_filler {
      type: "xavier"
      std: 0.03
    }
    bias_filler {
      type: "constant"
      value: 0.2
    }
  }
}
layer {
  name: "inception_3b/relu_3x3"
  type: "ReLU"
  bottom: "inception_3b/3x3"
  top: "inception_3b/3x3"
}
layer {
  name: "inception_3b/5x5_reduce"
  type: "Convolution"
  bottom: "inception_3a/output"
  top: "inception_3b/5x5_reduce"
  param {
    lr_mult: 1
    decay_mult: 1
  }
  param {
    lr_mult: 2
    decay_mult: 0
  }
  convolution_param {
    num_output: 32
    kernel_size: 1
    weight_filler {
      type: "xavier"
      std: 0.2
    }
    bias_filler {
      type: "constant"
      value: 0.2
    }
  }
}
layer {
  name: "inception_3b/relu_5x5_reduce"
  type: "ReLU"
  bottom: "inception_3b/5x5_reduce"
  top: "inception_3b/5x5_reduce"
}
layer {
  name: "inception_3b/5x5"
  type: "Convolution"
  bottom: "inception_3b/5x5_reduce"
  top: "inception_3b/5x5"
  param {
    lr_mult: 1
    decay_mult: 1
  }
  param {
    lr_mult: 2
    decay_mult: 0
  }
  convolution_param {
    num_output: 96
    pad: 2
    kernel_size: 5
    weight_filler {
      type: "xavier"
      std: 0.03
    }
    bias_filler {
      type: "constant"
      value: 0.2
    }
  }
}
layer {
  name: "inception_3b/relu_5x5"
  type: "ReLU"
  bottom: "inception_3b/5x5"
  top: "inception_3b/5x5"
}
layer {
  name: "inception_3b/pool"
  type: "Pooling"
  bottom: "inception_3a/output"
  top: "inception_3b/pool"
  pooling_param {
    pool: MAX
    kernel_size: 3
    stride: 1
    pad: 1
  }
}
layer {
  name: "inception_3b/pool_proj"
  type: "Convolution"
  bottom: "inception_3b/pool"
  top: "inception_3b/pool_proj"
  param {
    lr_mult: 1
    decay_mult: 1
  }
  param {
    lr_mult: 2
    decay_mult: 0
  }
  convolution_param {
    num_output: 64
    kernel_size: 1
    weight_filler {
      type: "xavier"
      std: 0.1
    }
    bias_filler {
      type: "constant"
      value: 0.2
    }
  }
}
layer {
  name: "inception_3b/relu_pool_proj"
  type: "ReLU"
  bottom: "inception_3b/pool_proj"
  top: "inception_3b/pool_proj"
}
layer {
  name: "inception_3b/output"
  type: "Concat"
  bottom: "inception_3b/1x1"
  bottom: "inception_3b/3x3"
  bottom: "inception_3b/5x5"
  bottom: "inception_3b/pool_proj"
  top: "inception_3b/output"
}
layer {
  name: "pool3/3x3_s2"
  type: "Pooling"
  bottom: "inception_3b/output"
  top: "pool3/3x3_s2"
  pooling_param {
    pool: MAX
    kernel_size: 3
    stride: 2
  }
}
layer {
  name: "inception_4a/1x1"
  type: "Convolution"
  bottom: "pool3/3x3_s2"
  top: "inception_4a/1x1"
  param {
    lr_mult: 1
    decay_mult: 1
  }
  param {
    lr_mult: 2
    decay_mult: 0
  }
  convolution_param {
    num_output: 192
    kernel_size: 1
    weight_filler {
      type: "xavier"
      std: 0.03
    }
    bias_filler {
      type: "constant"
      value: 0.2
    }
  }
}
layer {
  name: "inception_4a/relu_1x1"
  type: "ReLU"
  bottom: "inception_4a/1x1"
  top: "inception_4a/1x1"
}
layer {
  name: "inception_4a/3x3_reduce"
  type: "Convolution"
  bottom: "pool3/3x3_s2"
  top: "inception_4a/3x3_reduce"
  param {
    lr_mult: 1
    decay_mult: 1
  }
  param {
    lr_mult: 2
    decay_mult: 0
  }
  convolution_param {
    num_output: 96
    kernel_size: 1
    weight_filler {
      type: "xavier"
      std: 0.09
    }
    bias_filler {
      type: "constant"
      value: 0.2
    }
  }
}
layer {
  name: "inception_4a/relu_3x3_reduce"
  type: "ReLU"
  bottom: "inception_4a/3x3_reduce"
  top: "inception_4a/3x3_reduce"
}
layer {
  name: "inception_4a/3x3"
  type: "Convolution"
  bottom: "inception_4a/3x3_reduce"
  top: "inception_4a/3x3"
  param {
    lr_mult: 1
    decay_mult: 1
  }
  param {
    lr_mult: 2
    decay_mult: 0
  }
  convolution_param {
    num_output: 208
    pad: 1
    kernel_size: 3
    weight_filler {
      type: "xavier"
      std: 0.03
    }
    bias_filler {
      type: "constant"
      value: 0.2
    }
  }
}
layer {
  name: "inception_4a/relu_3x3"
  type: "ReLU"
  bottom: "inception_4a/3x3"
  top: "inception_4a/3x3"
}
layer {
  name: "inception_4a/5x5_reduce"
  type: "Convolution"
  bottom: "pool3/3x3_s2"
  top: "inception_4a/5x5_reduce"
  param {
    lr_mult: 1
    decay_mult: 1
  }
  param {
    lr_mult: 2
    decay_mult: 0
  }
  convolution_param {
    num_output: 16
    kernel_size: 1
    weight_filler {
      type: "xavier"
      std: 0.2
    }
    bias_filler {
      type: "constant"
      value: 0.2
    }
  }
}
layer {
  name: "inception_4a/relu_5x5_reduce"
  type: "ReLU"
  bottom: "inception_4a/5x5_reduce"
  top: "inception_4a/5x5_reduce"
}
layer {
  name: "inception_4a/5x5"
  type: "Convolution"
  bottom: "inception_4a/5x5_reduce"
  top: "inception_4a/5x5"
  param {
    lr_mult: 1
    decay_mult: 1
  }
  param {
    lr_mult: 2
    decay_mult: 0
  }
  convolution_param {
    num_output: 48
    pad: 2
    kernel_size: 5
    weight_filler {
      type: "xavier"
      std: 0.03
    }
    bias_filler {
      type: "constant"
      value: 0.2
    }
  }
}
layer {
  name: "inception_4a/relu_5x5"
  type: "ReLU"
  bottom: "inception_4a/5x5"
  top: "inception_4a/5x5"
}
layer {
  name: "inception_4a/pool"
  type: "Pooling"
  bottom: "pool3/3x3_s2"
  top: "inception_4a/pool"
  pooling_param {
    pool: MAX
    kernel_size: 3
    stride: 1
    pad: 1
  }
}
layer {
  name: "inception_4a/pool_proj"
  type: "Convolution"
  bottom: "inception_4a/pool"
  top: "inception_4a/pool_proj"
  param {
    lr_mult: 1
    decay_mult: 1
  }
  param {
    lr_mult: 2
    decay_mult: 0
  }
  convolution_param {
    num_output: 64
    kernel_size: 1
    weight_filler {
      type: "xavier"
      std: 0.1
    }
    bias_filler {
      type: "constant"
      value: 0.2
    }
  }
}
layer {
  name: "inception_4a/relu_pool_proj"
  type: "ReLU"
  bottom: "inception_4a/pool_proj"
  top: "inception_4a/pool_proj"
}
layer {
  name: "inception_4a/output"
  type: "Concat"
  bottom: "inception_4a/1x1"
  bottom: "inception_4a/3x3"
  bottom: "inception_4a/5x5"
  bottom: "inception_4a/pool_proj"
  top: "inception_4a/output"
}
layer {
  name: "inception_4b/1x1"
  type: "Convolution"
  bottom: "inception_4a/output"
  top: "inception_4b/1x1"
  param {
    lr_mult: 1
    decay_mult: 1
  }
  param {
    lr_mult: 2
    decay_mult: 0
  }
  convolution_param {
    num_output: 160
    kernel_size: 1
    weight_filler {
      type: "xavier"
      std: 0.03
    }
    bias_filler {
      type: "constant"
      value: 0.2
    }
  }
}
layer {
  name: "inception_4b/relu_1x1"
  type: "ReLU"
  bottom: "inception_4b/1x1"
  top: "inception_4b/1x1"
}
layer {
  name: "inception_4b/3x3_reduce"
  type: "Convolution"
  bottom: "inception_4a/output"
  top: "inception_4b/3x3_reduce"
  param {
    lr_mult: 1
    decay_mult: 1
  }
  param {
    lr_mult: 2
    decay_mult: 0
  }
  convolution_param {
    num_output: 112
    kernel_size: 1
    weight_filler {
      type: "xavier"
      std: 0.09
    }
    bias_filler {
      type: "constant"
      value: 0.2
    }
  }
}
layer {
  name: "inception_4b/relu_3x3_reduce"
  type: "ReLU"
  bottom: "inception_4b/3x3_reduce"
  top: "inception_4b/3x3_reduce"
}
layer {
  name: "inception_4b/3x3"
  type: "Convolution"
  bottom: "inception_4b/3x3_reduce"
  top: "inception_4b/3x3"
  param {
    lr_mult: 1
    decay_mult: 1
  }
  param {
    lr_mult: 2
    decay_mult: 0
  }
  convolution_param {
    num_output: 224
    pad: 1
    kernel_size: 3
    weight_filler {
      type: "xavier"
      std: 0.03
    }
    bias_filler {
      type: "constant"
      value: 0.2
    }
  }
}
layer {
  name: "inception_4b/relu_3x3"
  type: "ReLU"
  bottom: "inception_4b/3x3"
  top: "inception_4b/3x3"
}
layer {
  name: "inception_4b/5x5_reduce"
  type: "Convolution"
  bottom: "inception_4a/output"
  top: "inception_4b/5x5_reduce"
  param {
    lr_mult: 1
    decay_mult: 1
  }
  param {
    lr_mult: 2
    decay_mult: 0
  }
  convolution_param {
    num_output: 24
    kernel_size: 1
    weight_filler {
      type: "xavier"
      std: 0.2
    }
    bias_filler {
      type: "constant"
      value: 0.2
    }
  }
}
layer {
  name: "inception_4b/relu_5x5_reduce"
  type: "ReLU"
  bottom: "inception_4b/5x5_reduce"
  top: "inception_4b/5x5_reduce"
}
layer {
  name: "inception_4b/5x5"
  type: "Convolution"
  bottom: "inception_4b/5x5_reduce"
  top: "inception_4b/5x5"
  param {
    lr_mult: 1
    decay_mult: 1
  }
  param {
    lr_mult: 2
    decay_mult: 0
  }
  convolution_param {
    num_output: 64
    pad: 2
    kernel_size: 5
    weight_filler {
      type: "xavier"
      std: 0.03
    }
    bias_filler {
      type: "constant"
      value: 0.2
    }
  }
}
layer {
  name: "inception_4b/relu_5x5"
  type: "ReLU"
  bottom: "inception_4b/5x5"
  top: "inception_4b/5x5"
}
layer {
  name: "inception_4b/pool"
  type: "Pooling"
  bottom: "inception_4a/output"
  top: "inception_4b/pool"
  pooling_param {
    pool: MAX
    kernel_size: 3
    stride: 1
    pad: 1
  }
}
layer {
  name: "inception_4b/pool_proj"
  type: "Convolution"
  bottom: "inception_4b/pool"
  top: "inception_4b/pool_proj"
  param {
    lr_mult: 1
    decay_mult: 1
  }
  param {
    lr_mult: 2
    decay_mult: 0
  }
  convolution_param {
    num_output: 64
    kernel_size: 1
    weight_filler {
      type: "xavier"
      std: 0.1
    }
    bias_filler {
      type: "constant"
      value: 0.2
    }
  }
}
layer {
  name: "inception_4b/relu_pool_proj"
  type: "ReLU"
  bottom: "inception_4b/pool_proj"
  top: "inception_4b/pool_proj"
}
layer {
  name: "inception_4b/output"
  type: "Concat"
  bottom: "inception_4b/1x1"
  bottom: "inception_4b/3x3"
  bottom: "inception_4b/5x5"
  bottom: "inception_4b/pool_proj"
  top: "inception_4b/output"
}
layer {
  name: "inception_4c/1x1"
  type: "Convolution"
  bottom: "inception_4b/output"
  top: "inception_4c/1x1"
  param {
    lr_mult: 1
    decay_mult: 1
  }
  param {
    lr_mult: 2
    decay_mult: 0
  }
  convolution_param {
    num_output: 128
    kernel_size: 1
    weight_filler {
      type: "xavier"
      std: 0.03
    }
    bias_filler {
      type: "constant"
      value: 0.2
    }
  }
}
layer {
  name: "inception_4c/relu_1x1"
  type: "ReLU"
  bottom: "inception_4c/1x1"
  top: "inception_4c/1x1"
}
layer {
  name: "inception_4c/3x3_reduce"
  type: "Convolution"
  bottom: "inception_4b/output"
  top: "inception_4c/3x3_reduce"
  param {
    lr_mult: 1
    decay_mult: 1
  }
  param {
    lr_mult: 2
    decay_mult: 0
  }
  convolution_param {
    num_output: 128
    kernel_size: 1
    weight_filler {
      type: "xavier"
      std: 0.09
    }
    bias_filler {
      type: "constant"
      value: 0.2
    }
  }
}
layer {
  name: "inception_4c/relu_3x3_reduce"
  type: "ReLU"
  bottom: "inception_4c/3x3_reduce"
  top: "inception_4c/3x3_reduce"
}
layer {
  name: "inception_4c/3x3"
  type: "Convolution"
  bottom: "inception_4c/3x3_reduce"
  top: "inception_4c/3x3"
  param {
    lr_mult: 1
    decay_mult: 1
  }
  param {
    lr_mult: 2
    decay_mult: 0
  }
  convolution_param {
    num_output: 256
    pad: 1
    kernel_size: 3
    weight_filler {
      type: "xavier"
      std: 0.03
    }
    bias_filler {
      type: "constant"
      value: 0.2
    }
  }
}
layer {
  name: "inception_4c/relu_3x3"
  type: "ReLU"
  bottom: "inception_4c/3x3"
  top: "inception_4c/3x3"
}
layer {
  name: "inception_4c/5x5_reduce"
  type: "Convolution"
  bottom: "inception_4b/output"
  top: "inception_4c/5x5_reduce"
  param {
    lr_mult: 1
    decay_mult: 1
  }
  param {
    lr_mult: 2
    decay_mult: 0
  }
  convolution_param {
    num_output: 24
    kernel_size: 1
    weight_filler {
      type: "xavier"
      std: 0.2
    }
    bias_filler {
      type: "constant"
      value: 0.2
    }
  }
}
layer {
  name: "inception_4c/relu_5x5_reduce"
  type: "ReLU"
  bottom: "inception_4c/5x5_reduce"
  top: "inception_4c/5x5_reduce"
}
layer {
  name: "inception_4c/5x5"
  type: "Convolution"
  bottom: "inception_4c/5x5_reduce"
  top: "inception_4c/5x5"
  param {
    lr_mult: 1
    decay_mult: 1
  }
  param {
    lr_mult: 2
    decay_mult: 0
  }
  convolution_param {
    num_output: 64
    pad: 2
    kernel_size: 5
    weight_filler {
      type: "xavier"
      std: 0.03
    }
    bias_filler {
      type: "constant"
      value: 0.2
    }
  }
}
layer {
  name: "inception_4c/relu_5x5"
  type: "ReLU"
  bottom: "inception_4c/5x5"
  top: "inception_4c/5x5"
}
layer {
  name: "inception_4c/pool"
  type: "Pooling"
  bottom: "inception_4b/output"
  top: "inception_4c/pool"
  pooling_param {
    pool: MAX
    kernel_size: 3
    stride: 1
    pad: 1
  }
}
layer {
  name: "inception_4c/pool_proj"
  type: "Convolution"
  bottom: "inception_4c/pool"
  top: "inception_4c/pool_proj"
  param {
    lr_mult: 1
    decay_mult: 1
  }
  param {
    lr_mult: 2
    decay_mult: 0
  }
  convolution_param {
    num_output: 64
    kernel_size: 1
    weight_filler {
      type: "xavier"
      std: 0.1
    }
    bias_filler {
      type: "constant"
      value: 0.2
    }
  }
}
layer {
  name: "inception_4c/relu_pool_proj"
  type: "ReLU"
  bottom: "inception_4c/pool_proj"
  top: "inception_4c/pool_proj"
}
layer {
  name: "inception_4c/output"
  type: "Concat"
  bottom: "inception_4c/1x1"
  bottom: "inception_4c/3x3"
  bottom: "inception_4c/5x5"
  bottom: "inception_4c/pool_proj"
  top: "inception_4c/output"
}
layer {
  name: "inception_4d/1x1"
  type: "Convolution"
  bottom: "inception_4c/output"
  top: "inception_4d/1x1"
  param {
    lr_mult: 1
    decay_mult: 1
  }
  param {
    lr_mult: 2
    decay_mult: 0
  }
  convolution_param {
    num_output: 112
    kernel_size: 1
    weight_filler {
      type: "xavier"
      std: 0.03
    }
    bias_filler {
      type: "constant"
      value: 0.2
    }
  }
}
layer {
  name: "inception_4d/relu_1x1"
  type: "ReLU"
  bottom: "inception_4d/1x1"
  top: "inception_4d/1x1"
}
layer {
  name: "inception_4d/3x3_reduce"
  type: "Convolution"
  bottom: "inception_4c/output"
  top: "inception_4d/3x3_reduce"
  param {
    lr_mult: 1
    decay_mult: 1
  }
  param {
    lr_mult: 2
    decay_mult: 0
  }
  convolution_param {
    num_output: 144
    kernel_size: 1
    weight_filler {
      type: "xavier"
      std: 0.09
    }
    bias_filler {
      type: "constant"
      value: 0.2
    }
  }
}
layer {
  name: "inception_4d/relu_3x3_reduce"
  type: "ReLU"
  bottom: "inception_4d/3x3_reduce"
  top: "inception_4d/3x3_reduce"
}
layer {
  name: "inception_4d/3x3"
  type: "Convolution"
  bottom: "inception_4d/3x3_reduce"
  top: "inception_4d/3x3"
  param {
    lr_mult: 1
    decay_mult: 1
  }
  param {
    lr_mult: 2
    decay_mult: 0
  }
  convolution_param {
    num_output: 288
    pad: 1
    kernel_size: 3
    weight_filler {
      type: "xavier"
      std: 0.03
    }
    bias_filler {
      type: "constant"
      value: 0.2
    }
  }
}
layer {
  name: "inception_4d/relu_3x3"
  type: "ReLU"
  bottom: "inception_4d/3x3"
  top: "inception_4d/3x3"
}
layer {
  name: "inception_4d/5x5_reduce"
  type: "Convolution"
  bottom: "inception_4c/output"
  top: "inception_4d/5x5_reduce"
  param {
    lr_mult: 1
    decay_mult: 1
  }
  param {
    lr_mult: 2
    decay_mult: 0
  }
  convolution_param {
    num_output: 32
    kernel_size: 1
    weight_filler {
      type: "xavier"
      std: 0.2
    }
    bias_filler {
      type: "constant"
      value: 0.2
    }
  }
}
layer {
  name: "inception_4d/relu_5x5_reduce"
  type: "ReLU"
  bottom: "inception_4d/5x5_reduce"
  top: "inception_4d/5x5_reduce"
}
layer {
  name: "inception_4d/5x5"
  type: "Convolution"
  bottom: "inception_4d/5x5_reduce"
  top: "inception_4d/5x5"
  param {
    lr_mult: 1
    decay_mult: 1
  }
  param {
    lr_mult: 2
    decay_mult: 0
  }
  convolution_param {
    num_output: 64
    pad: 2
    kernel_size: 5
    weight_filler {
      type: "xavier"
      std: 0.03
    }
    bias_filler {
      type: "constant"
      value: 0.2
    }
  }
}
layer {
  name: "inception_4d/relu_5x5"
  type: "ReLU"
  bottom: "inception_4d/5x5"
  top: "inception_4d/5x5"
}
layer {
  name: "inception_4d/pool"
  type: "Pooling"
  bottom: "inception_4c/output"
  top: "inception_4d/pool"
  pooling_param {
    pool: MAX
    kernel_size: 3
    stride: 1
    pad: 1
  }
}
layer {
  name: "inception_4d/pool_proj"
  type: "Convolution"
  bottom: "inception_4d/pool"
  top: "inception_4d/pool_proj"
  param {
    lr_mult: 1
    decay_mult: 1
  }
  param {
    lr_mult: 2
    decay_mult: 0
  }
  convolution_param {
    num_output: 64
    kernel_size: 1
    weight_filler {
      type: "xavier"
      std: 0.1
    }
    bias_filler {
      type: "constant"
      value: 0.2
    }
  }
}
layer {
  name: "inception_4d/relu_pool_proj"
  type: "ReLU"
  bottom: "inception_4d/pool_proj"
  top: "inception_4d/pool_proj"
}
layer {
  name: "inception_4d/output"
  type: "Concat"
  bottom: "inception_4d/1x1"
  bottom: "inception_4d/3x3"
  bottom: "inception_4d/5x5"
  bottom: "inception_4d/pool_proj"
  top: "inception_4d/output"
}
layer {
  name: "inception_4e/1x1"
  type: "Convolution"
  bottom: "inception_4d/output"
  top: "inception_4e/1x1"
  param {
    lr_mult: 1
    decay_mult: 1
  }
  param {
    lr_mult: 2
    decay_mult: 0
  }
  convolution_param {
    num_output: 256
    kernel_size: 1
    weight_filler {
      type: "xavier"
      std: 0.03
    }
    bias_filler {
      type: "constant"
      value: 0.2
    }
  }
}
layer {
  name: "inception_4e/relu_1x1"
  type: "ReLU"
  bottom: "inception_4e/1x1"
  top: "inception_4e/1x1"
}
layer {
  name: "inception_4e/3x3_reduce"
  type: "Convolution"
  bottom: "inception_4d/output"
  top: "inception_4e/3x3_reduce"
  param {
    lr_mult: 1
    decay_mult: 1
  }
  param {
    lr_mult: 2
    decay_mult: 0
  }
  convolution_param {
    num_output: 160
    kernel_size: 1
    weight_filler {
      type: "xavier"
      std: 0.09
    }
    bias_filler {
      type: "constant"
      value: 0.2
    }
  }
}
layer {
  name: "inception_4e/relu_3x3_reduce"
  type: "ReLU"
  bottom: "inception_4e/3x3_reduce"
  top: "inception_4e/3x3_reduce"
}
layer {
  name: "inception_4e/3x3"
  type: "Convolution"
  bottom: "inception_4e/3x3_reduce"
  top: "inception_4e/3x3"
  param {
    lr_mult: 1
    decay_mult: 1
  }
  param {
    lr_mult: 2
    decay_mult: 0
  }
  convolution_param {
    num_output: 320
    pad: 1
    kernel_size: 3
    weight_filler {
      type: "xavier"
      std: 0.03
    }
    bias_filler {
      type: "constant"
      value: 0.2
    }
  }
}
layer {
  name: "inception_4e/relu_3x3"
  type: "ReLU"
  bottom: "inception_4e/3x3"
  top: "inception_4e/3x3"
}
layer {
  name: "inception_4e/5x5_reduce"
  type: "Convolution"
  bottom: "inception_4d/output"
  top: "inception_4e/5x5_reduce"
  param {
    lr_mult: 1
    decay_mult: 1
  }
  param {
    lr_mult: 2
    decay_mult: 0
  }
  convolution_param {
    num_output: 32
    kernel_size: 1
    weight_filler {
      type: "xavier"
      std: 0.2
    }
    bias_filler {
      type: "constant"
      value: 0.2
    }
  }
}
layer {
  name: "inception_4e/relu_5x5_reduce"
  type: "ReLU"
  bottom: "inception_4e/5x5_reduce"
  top: "inception_4e/5x5_reduce"
}
layer {
  name: "inception_4e/5x5"
  type: "Convolution"
  bottom: "inception_4e/5x5_reduce"
  top: "inception_4e/5x5"
  param {
    lr_mult: 1
    decay_mult: 1
  }
  param {
    lr_mult: 2
    decay_mult: 0
  }
  convolution_param {
    num_output: 128
    pad: 2
    kernel_size: 5
    weight_filler {
      type: "xavier"
      std: 0.03
    }
    bias_filler {
      type: "constant"
      value: 0.2
    }
  }
}
layer {
  name: "inception_4e/relu_5x5"
  type: "ReLU"
  bottom: "inception_4e/5x5"
  top: "inception_4e/5x5"
}
layer {
  name: "inception_4e/pool"
  type: "Pooling"
  bottom: "inception_4d/output"
  top: "inception_4e/pool"
  pooling_param {
    pool: MAX
    kernel_size: 3
    stride: 1
    pad: 1
  }
}
layer {
  name: "inception_4e/pool_proj"
  type: "Convolution"
  bottom: "inception_4e/pool"
  top: "inception_4e/pool_proj"
  param {
    lr_mult: 1
    decay_mult: 1
  }
  param {
    lr_mult: 2
    decay_mult: 0
  }
  convolution_param {
    num_output: 128
    kernel_size: 1
    weight_filler {
      type: "xavier"
      std: 0.1
    }
    bias_filler {
      type: "constant"
      value: 0.2
    }
  }
}
layer {
  name: "inception_4e/relu_pool_proj"
  type: "ReLU"
  bottom: "inception_4e/pool_proj"
  top: "inception_4e/pool_proj"
}
layer {
  name: "inception_4e/output"
  type: "Concat"
  bottom: "inception_4e/1x1"
  bottom: "inception_4e/3x3"
  bottom: "inception_4e/5x5"
  bottom: "inception_4e/pool_proj"
  top: "inception_4e/output"
}
layer {
  name: "pool4/3x3_s2"
  type: "Pooling"
  bottom: "inception_4e/output"
  top: "pool4/3x3_s2"
  pooling_param {
    pool: MAX
    kernel_size: 3
    stride: 2
  }
}
layer {
  name: "inception_5a/1x1"
  type: "Convolution"
  bottom: "pool4/3x3_s2"
  top: "inception_5a/1x1"
  param {
    lr_mult: 1
    decay_mult: 1
  }
  param {
    lr_mult: 2
    decay_mult: 0
  }
  convolution_param {
    num_output: 256
    kernel_size: 1
    weight_filler {
      type: "xavier"
      std: 0.03
    }
    bias_filler {
      type: "constant"
      value: 0.2
    }
  }
}
layer {
  name: "inception_5a/relu_1x1"
  type: "ReLU"
  bottom: "inception_5a/1x1"
  top: "inception_5a/1x1"
}
layer {
  name: "inception_5a/3x3_reduce"
  type: "Convolution"
  bottom: "pool4/3x3_s2"
  top: "inception_5a/3x3_reduce"
  param {
    lr_mult: 1
    decay_mult: 1
  }
  param {
    lr_mult: 2
    decay_mult: 0
  }
  convolution_param {
    num_output: 160
    kernel_size: 1
    weight_filler {
      type: "xavier"
      std: 0.09
    }
    bias_filler {
      type: "constant"
      value: 0.2
    }
  }
}
layer {
  name: "inception_5a/relu_3x3_reduce"
  type: "ReLU"
  bottom: "inception_5a/3x3_reduce"
  top: "inception_5a/3x3_reduce"
}
layer {
  name: "inception_5a/3x3"
  type: "Convolution"
  bottom: "inception_5a/3x3_reduce"
  top: "inception_5a/3x3"
  param {
    lr_mult: 1
    decay_mult: 1
  }
  param {
    lr_mult: 2
    decay_mult: 0
  }
  convolution_param {
    num_output: 320
    pad: 1
    kernel_size: 3
    weight_filler {
      type: "xavier"
      std: 0.03
    }
    bias_filler {
      type: "constant"
      value: 0.2
    }
  }
}
layer {
  name: "inception_5a/relu_3x3"
  type: "ReLU"
  bottom: "inception_5a/3x3"
  top: "inception_5a/3x3"
}
layer {
  name: "inception_5a/5x5_reduce"
  type: "Convolution"
  bottom: "pool4/3x3_s2"
  top: "inception_5a/5x5_reduce"
  param {
    lr_mult: 1
    decay_mult: 1
  }
  param {
    lr_mult: 2
    decay_mult: 0
  }
  convolution_param {
    num_output: 32
    kernel_size: 1
    weight_filler {
      type: "xavier"
      std: 0.2
    }
    bias_filler {
      type: "constant"
      value: 0.2
  
I0703 20:45:45.290551  3512 layer_factory.hpp:77] Creating layer data
I0703 20:45:45.290576  3512 net.cpp:91] Creating Layer data
I0703 20:45:45.290593  3512 net.cpp:399] data -> data
I0703 20:45:45.298070  3512 net.cpp:141] Setting up data
I0703 20:45:45.298111  3512 net.cpp:148] Top shape: 10 3 224 224 (1505280)
I0703 20:45:45.298122  3512 net.cpp:156] Memory required for data: 6021120
I0703 20:45:45.298138  3512 layer_factory.hpp:77] Creating layer conv1/7x7_s2
I0703 20:45:45.298162  3512 net.cpp:91] Creating Layer conv1/7x7_s2
I0703 20:45:45.298169  3512 net.cpp:425] conv1/7x7_s2 <- data
I0703 20:45:45.298182  3512 net.cpp:399] conv1/7x7_s2 -> conv1/7x7_s2
I0703 20:45:45.415264  3512 net.cpp:141] Setting up conv1/7x7_s2
I0703 20:45:45.415310  3512 net.cpp:148] Top shape: 10 64 112 112 (8028160)
I0703 20:45:45.415325  3512 net.cpp:156] Memory required for data: 38133760
I0703 20:45:45.415355  3512 layer_factory.hpp:77] Creating layer conv1/relu_7x7
I0703 20:45:45.415380  3512 net.cpp:91] Creating Layer conv1/relu_7x7
I0703 20:45:45.415390  3512 net.cpp:425] conv1/relu_7x7 <- conv1/7x7_s2
I0703 20:45:45.415419  3512 net.cpp:386] conv1/relu_7x7 -> conv1/7x7_s2 (in-place)
I0703 20:45:45.415664  3512 net.cpp:141] Setting up conv1/relu_7x7
I0703 20:45:45.415678  3512 net.cpp:148] Top shape: 10 64 112 112 (8028160)
I0703 20:45:45.415683  3512 net.cpp:156] Memory required for data: 70246400
I0703 20:45:45.415689  3512 layer_factory.hpp:77] Creating layer pool1/3x3_s2
I0703 20:45:45.415699  3512 net.cpp:91] Creating Layer pool1/3x3_s2
I0703 20:45:45.415705  3512 net.cpp:425] pool1/3x3_s2 <- conv1/7x7_s2
I0703 20:45:45.415714  3512 net.cpp:399] pool1/3x3_s2 -> pool1/3x3_s2
I0703 20:45:45.415756  3512 net.cpp:141] Setting up pool1/3x3_s2
I0703 20:45:45.415769  3512 net.cpp:148] Top shape: 10 64 56 56 (2007040)
I0703 20:45:45.415774  3512 net.cpp:156] Memory required for data: 78274560
I0703 20:45:45.415781  3512 layer_factory.hpp:77] Creating layer pool1/norm1
I0703 20:45:45.415792  3512 net.cpp:91] Creating Layer pool1/norm1
I0703 20:45:45.415798  3512 net.cpp:425] pool1/norm1 <- pool1/3x3_s2
I0703 20:45:45.415807  3512 net.cpp:399] pool1/norm1 -> pool1/norm1
I0703 20:45:45.416059  3512 net.cpp:141] Setting up pool1/norm1
I0703 20:45:45.416072  3512 net.cpp:148] Top shape: 10 64 56 56 (2007040)
I0703 20:45:45.416079  3512 net.cpp:156] Memory required for data: 86302720
I0703 20:45:45.416085  3512 layer_factory.hpp:77] Creating layer conv2/3x3_reduce
I0703 20:45:45.416100  3512 net.cpp:91] Creating Layer conv2/3x3_reduce
I0703 20:45:45.416105  3512 net.cpp:425] conv2/3x3_reduce <- pool1/norm1
I0703 20:45:45.416113  3512 net.cpp:399] conv2/3x3_reduce -> conv2/3x3_reduce
I0703 20:45:45.417161  3512 net.cpp:141] Setting up conv2/3x3_reduce
I0703 20:45:45.417177  3512 net.cpp:148] Top shape: 10 64 56 56 (2007040)
I0703 20:45:45.417183  3512 net.cpp:156] Memory required for data: 94330880
I0703 20:45:45.417196  3512 layer_factory.hpp:77] Creating layer conv2/relu_3x3_reduce
I0703 20:45:45.417204  3512 net.cpp:91] Creating Layer conv2/relu_3x3_reduce
I0703 20:45:45.417210  3512 net.cpp:425] conv2/relu_3x3_reduce <- conv2/3x3_reduce
I0703 20:45:45.417218  3512 net.cpp:386] conv2/relu_3x3_reduce -> conv2/3x3_reduce (in-place)
I0703 20:45:45.417451  3512 net.cpp:141] Setting up conv2/relu_3x3_reduce
I0703 20:45:45.417465  3512 net.cpp:148] Top shape: 10 64 56 56 (2007040)
I0703 20:45:45.417470  3512 net.cpp:156] Memory required for data: 102359040
I0703 20:45:45.417476  3512 layer_factory.hpp:77] Creating layer conv2/3x3
I0703 20:45:45.417487  3512 net.cpp:91] Creating Layer conv2/3x3
I0703 20:45:45.417493  3512 net.cpp:425] conv2/3x3 <- conv2/3x3_reduce
I0703 20:45:45.417501  3512 net.cpp:399] conv2/3x3 -> conv2/3x3
I0703 20:45:45.419255  3512 net.cpp:141] Setting up conv2/3x3
I0703 20:45:45.419270  3512 net.cpp:148] Top shape: 10 192 56 56 (6021120)
I0703 20:45:45.419277  3512 net.cpp:156] Memory required for data: 126443520
I0703 20:45:45.419288  3512 layer_factory.hpp:77] Creating layer conv2/relu_3x3
I0703 20:45:45.419298  3512 net.cpp:91] Creating Layer conv2/relu_3x3
I0703 20:45:45.419304  3512 net.cpp:425] conv2/relu_3x3 <- conv2/3x3
I0703 20:45:45.419312  3512 net.cpp:386] conv2/relu_3x3 -> conv2/3x3 (in-place)
I0703 20:45:45.419440  3512 net.cpp:141] Setting up conv2/relu_3x3
I0703 20:45:45.419451  3512 net.cpp:148] Top shape: 10 192 56 56 (6021120)
I0703 20:45:45.419457  3512 net.cpp:156] Memory required for data: 150528000
I0703 20:45:45.419463  3512 layer_factory.hpp:77] Creating layer conv2/norm2
I0703 20:45:45.419471  3512 net.cpp:91] Creating Layer conv2/norm2
I0703 20:45:45.419478  3512 net.cpp:425] conv2/norm2 <- conv2/3x3
I0703 20:45:45.419486  3512 net.cpp:399] conv2/norm2 -> conv2/norm2
I0703 20:45:45.419733  3512 net.cpp:141] Setting up conv2/norm2
I0703 20:45:45.419745  3512 net.cpp:148] Top shape: 10 192 56 56 (6021120)
I0703 20:45:45.419751  3512 net.cpp:156] Memory required for data: 174612480
I0703 20:45:45.419757  3512 layer_factory.hpp:77] Creating layer pool2/3x3_s2
I0703 20:45:45.419765  3512 net.cpp:91] Creating Layer pool2/3x3_s2
I0703 20:45:45.419771  3512 net.cpp:425] pool2/3x3_s2 <- conv2/norm2
I0703 20:45:45.419785  3512 net.cpp:399] pool2/3x3_s2 -> pool2/3x3_s2
I0703 20:45:45.419819  3512 net.cpp:141] Setting up pool2/3x3_s2
I0703 20:45:45.419829  3512 net.cpp:148] Top shape: 10 192 28 28 (1505280)
I0703 20:45:45.419834  3512 net.cpp:156] Memory required for data: 180633600
I0703 20:45:45.419841  3512 layer_factory.hpp:77] Creating layer pool2/3x3_s2_pool2/3x3_s2_0_split
I0703 20:45:45.419850  3512 net.cpp:91] Creating Layer pool2/3x3_s2_pool2/3x3_s2_0_split
I0703 20:45:45.419857  3512 net.cpp:425] pool2/3x3_s2_pool2/3x3_s2_0_split <- pool2/3x3_s2
I0703 20:45:45.419863  3512 net.cpp:399] pool2/3x3_s2_pool2/3x3_s2_0_split -> pool2/3x3_s2_pool2/3x3_s2_0_split_0
I0703 20:45:45.419873  3512 net.cpp:399] pool2/3x3_s2_pool2/3x3_s2_0_split -> pool2/3x3_s2_pool2/3x3_s2_0_split_1
I0703 20:45:45.419883  3512 net.cpp:399] pool2/3x3_s2_pool2/3x3_s2_0_split -> pool2/3x3_s2_pool2/3x3_s2_0_split_2
I0703 20:45:45.419891  3512 net.cpp:399] pool2/3x3_s2_pool2/3x3_s2_0_split -> pool2/3x3_s2_pool2/3x3_s2_0_split_3
I0703 20:45:45.419939  3512 net.cpp:141] Setting up pool2/3x3_s2_pool2/3x3_s2_0_split
I0703 20:45:45.419948  3512 net.cpp:148] Top shape: 10 192 28 28 (1505280)
I0703 20:45:45.419955  3512 net.cpp:148] Top shape: 10 192 28 28 (1505280)
I0703 20:45:45.419961  3512 net.cpp:148] Top shape: 10 192 28 28 (1505280)
I0703 20:45:45.419967  3512 net.cpp:148] Top shape: 10 192 28 28 (1505280)
I0703 20:45:45.419972  3512 net.cpp:156] Memory required for data: 204718080
I0703 20:45:45.419978  3512 layer_factory.hpp:77] Creating layer inception_3a/1x1
I0703 20:45:45.419989  3512 net.cpp:91] Creating Layer inception_3a/1x1
I0703 20:45:45.419996  3512 net.cpp:425] inception_3a/1x1 <- pool2/3x3_s2_pool2/3x3_s2_0_split_0
I0703 20:45:45.420007  3512 net.cpp:399] inception_3a/1x1 -> inception_3a/1x1
I0703 20:45:45.421172  3512 net.cpp:141] Setting up inception_3a/1x1
I0703 20:45:45.421188  3512 net.cpp:148] Top shape: 10 64 28 28 (501760)
I0703 20:45:45.421195  3512 net.cpp:156] Memory required for data: 206725120
I0703 20:45:45.421205  3512 layer_factory.hpp:77] Creating layer inception_3a/relu_1x1
I0703 20:45:45.421214  3512 net.cpp:91] Creating Layer inception_3a/relu_1x1
I0703 20:45:45.421221  3512 net.cpp:425] inception_3a/relu_1x1 <- inception_3a/1x1
I0703 20:45:45.421229  3512 net.cpp:386] inception_3a/relu_1x1 -> inception_3a/1x1 (in-place)
I0703 20:45:45.421358  3512 net.cpp:141] Setting up inception_3a/relu_1x1
I0703 20:45:45.421370  3512 net.cpp:148] Top shape: 10 64 28 28 (501760)
I0703 20:45:45.421376  3512 net.cpp:156] Memory required for data: 208732160
I0703 20:45:45.421382  3512 layer_factory.hpp:77] Creating layer inception_3a/3x3_reduce
I0703 20:45:45.421394  3512 net.cpp:91] Creating Layer inception_3a/3x3_reduce
I0703 20:45:45.421401  3512 net.cpp:425] inception_3a/3x3_reduce <- pool2/3x3_s2_pool2/3x3_s2_0_split_1
I0703 20:45:45.421411  3512 net.cpp:399] inception_3a/3x3_reduce -> inception_3a/3x3_reduce
I0703 20:45:45.422643  3512 net.cpp:141] Setting up inception_3a/3x3_reduce
I0703 20:45:45.422660  3512 net.cpp:148] Top shape: 10 96 28 28 (752640)
I0703 20:45:45.422668  3512 net.cpp:156] Memory required for data: 211742720
I0703 20:45:45.422680  3512 layer_factory.hpp:77] Creating layer inception_3a/relu_3x3_reduce
I0703 20:45:45.422690  3512 net.cpp:91] Creating Layer inception_3a/relu_3x3_reduce
I0703 20:45:45.422698  3512 net.cpp:425] inception_3a/relu_3x3_reduce <- inception_3a/3x3_reduce
I0703 20:45:45.422705  3512 net.cpp:386] inception_3a/relu_3x3_reduce -> inception_3a/3x3_reduce (in-place)
I0703 20:45:45.422863  3512 net.cpp:141] Setting up inception_3a/relu_3x3_reduce
I0703 20:45:45.422876  3512 net.cpp:148] Top shape: 10 96 28 28 (752640)
I0703 20:45:45.422883  3512 net.cpp:156] Memory required for data: 214753280
I0703 20:45:45.422889  3512 layer_factory.hpp:77] Creating layer inception_3a/3x3
I0703 20:45:45.422904  3512 net.cpp:91] Creating Layer inception_3a/3x3
I0703 20:45:45.422910  3512 net.cpp:425] inception_3a/3x3 <- inception_3a/3x3_reduce
I0703 20:45:45.422919  3512 net.cpp:399] inception_3a/3x3 -> inception_3a/3x3
I0703 20:45:45.424335  3512 net.cpp:141] Setting up inception_3a/3x3
I0703 20:45:45.424350  3512 net.cpp:148] Top shape: 10 128 28 28 (1003520)
I0703 20:45:45.424356  3512 net.cpp:156] Memory required for data: 218767360
I0703 20:45:45.424365  3512 layer_factory.hpp:77] Creating layer inception_3a/relu_3x3
I0703 20:45:45.424374  3512 net.cpp:91] Creating Layer inception_3a/relu_3x3
I0703 20:45:45.424381  3512 net.cpp:425] inception_3a/relu_3x3 <- inception_3a/3x3
I0703 20:45:45.424391  3512 net.cpp:386] inception_3a/relu_3x3 -> inception_3a/3x3 (in-place)
I0703 20:45:45.424721  3512 net.cpp:141] Setting up inception_3a/relu_3x3
I0703 20:45:45.424734  3512 net.cpp:148] Top shape: 10 128 28 28 (1003520)
I0703 20:45:45.424741  3512 net.cpp:156] Memory required for data: 222781440
I0703 20:45:45.424747  3512 layer_factory.hpp:77] Creating layer inception_3a/5x5_reduce
I0703 20:45:45.424760  3512 net.cpp:91] Creating Layer inception_3a/5x5_reduce
I0703 20:45:45.424767  3512 net.cpp:425] inception_3a/5x5_reduce <- pool2/3x3_s2_pool2/3x3_s2_0_split_2
I0703 20:45:45.424778  3512 net.cpp:399] inception_3a/5x5_reduce -> inception_3a/5x5_reduce
I0703 20:45:45.425680  3512 net.cpp:141] Setting up inception_3a/5x5_reduce
I0703 20:45:45.425698  3512 net.cpp:148] Top shape: 10 16 28 28 (125440)
I0703 20:45:45.425704  3512 net.cpp:156] Memory required for data: 223283200
I0703 20:45:45.425714  3512 layer_factory.hpp:77] Creating layer inception_3a/relu_5x5_reduce
I0703 20:45:45.425724  3512 net.cpp:91] Creating Layer inception_3a/relu_5x5_reduce
I0703 20:45:45.425730  3512 net.cpp:425] inception_3a/relu_5x5_reduce <- inception_3a/5x5_reduce
I0703 20:45:45.425740  3512 net.cpp:386] inception_3a/relu_5x5_reduce -> inception_3a/5x5_reduce (in-place)
I0703 20:45:45.425885  3512 net.cpp:141] Setting up inception_3a/relu_5x5_reduce
I0703 20:45:45.425897  3512 net.cpp:148] Top shape: 10 16 28 28 (125440)
I0703 20:45:45.425904  3512 net.cpp:156] Memory required for data: 223784960
I0703 20:45:45.425910  3512 layer_factory.hpp:77] Creating layer inception_3a/5x5
I0703 20:45:45.425923  3512 net.cpp:91] Creating Layer inception_3a/5x5
I0703 20:45:45.425930  3512 net.cpp:425] inception_3a/5x5 <- inception_3a/5x5_reduce
I0703 20:45:45.425941  3512 net.cpp:399] inception_3a/5x5 -> inception_3a/5x5
I0703 20:45:45.427052  3512 net.cpp:141] Setting up inception_3a/5x5
I0703 20:45:45.427067  3512 net.cpp:148] Top shape: 10 32 28 28 (250880)
I0703 20:45:45.427073  3512 net.cpp:156] Memory required for data: 224788480
I0703 20:45:45.427091  3512 layer_factory.hpp:77] Creating layer inception_3a/relu_5x5
I0703 20:45:45.427101  3512 net.cpp:91] Creating Layer inception_3a/relu_5x5
I0703 20:45:45.427109  3512 net.cpp:425] inception_3a/relu_5x5 <- inception_3a/5x5
I0703 20:45:45.427119  3512 net.cpp:386] inception_3a/relu_5x5 -> inception_3a/5x5 (in-place)
I0703 20:45:45.427269  3512 net.cpp:141] Setting up inception_3a/relu_5x5
I0703 20:45:45.427281  3512 net.cpp:148] Top shape: 10 32 28 28 (250880)
I0703 20:45:45.427287  3512 net.cpp:156] Memory required for data: 225792000
I0703 20:45:45.427294  3512 layer_factory.hpp:77] Creating layer inception_3a/pool
I0703 20:45:45.427305  3512 net.cpp:91] Creating Layer inception_3a/pool
I0703 20:45:45.427314  3512 net.cpp:425] inception_3a/pool <- pool2/3x3_s2_pool2/3x3_s2_0_split_3
I0703 20:45:45.427321  3512 net.cpp:399] inception_3a/pool -> inception_3a/pool
I0703 20:45:45.427363  3512 net.cpp:141] Setting up inception_3a/pool
I0703 20:45:45.427373  3512 net.cpp:148] Top shape: 10 192 28 28 (1505280)
I0703 20:45:45.427379  3512 net.cpp:156] Memory required for data: 231813120
I0703 20:45:45.427386  3512 layer_factory.hpp:77] Creating layer inception_3a/pool_proj
I0703 20:45:45.427398  3512 net.cpp:91] Creating Layer inception_3a/pool_proj
I0703 20:45:45.427407  3512 net.cpp:425] inception_3a/pool_proj <- inception_3a/pool
I0703 20:45:45.427418  3512 net.cpp:399] inception_3a/pool_proj -> inception_3a/pool_proj
I0703 20:45:45.428283  3512 net.cpp:141] Setting up inception_3a/pool_proj
I0703 20:45:45.428303  3512 net.cpp:148] Top shape: 10 32 28 28 (250880)
I0703 20:45:45.428309  3512 net.cpp:156] Memory required for data: 232816640
I0703 20:45:45.428324  3512 layer_factory.hpp:77] Creating layer inception_3a/relu_pool_proj
I0703 20:45:45.428333  3512 net.cpp:91] Creating Layer inception_3a/relu_pool_proj
I0703 20:45:45.428340  3512 net.cpp:425] inception_3a/relu_pool_proj <- inception_3a/pool_proj
I0703 20:45:45.428350  3512 net.cpp:386] inception_3a/relu_pool_proj -> inception_3a/pool_proj (in-place)
I0703 20:45:45.428601  3512 net.cpp:141] Setting up inception_3a/relu_pool_proj
I0703 20:45:45.428616  3512 net.cpp:148] Top shape: 10 32 28 28 (250880)
I0703 20:45:45.428622  3512 net.cpp:156] Memory required for data: 233820160
I0703 20:45:45.428628  3512 layer_factory.hpp:77] Creating layer inception_3a/output
I0703 20:45:45.428638  3512 net.cpp:91] Creating Layer inception_3a/output
I0703 20:45:45.428644  3512 net.cpp:425] inception_3a/output <- inception_3a/1x1
I0703 20:45:45.428653  3512 net.cpp:425] inception_3a/output <- inception_3a/3x3
I0703 20:45:45.428659  3512 net.cpp:425] inception_3a/output <- inception_3a/5x5
I0703 20:45:45.428666  3512 net.cpp:425] inception_3a/output <- inception_3a/pool_proj
I0703 20:45:45.428675  3512 net.cpp:399] inception_3a/output -> inception_3a/output
I0703 20:45:45.428709  3512 net.cpp:141] Setting up inception_3a/output
I0703 20:45:45.428719  3512 net.cpp:148] Top shape: 10 256 28 28 (2007040)
I0703 20:45:45.428725  3512 net.cpp:156] Memory required for data: 241848320
I0703 20:45:45.428731  3512 layer_factory.hpp:77] Creating layer inception_3a/output_inception_3a/output_0_split
I0703 20:45:45.428741  3512 net.cpp:91] Creating Layer inception_3a/output_inception_3a/output_0_split
I0703 20:45:45.428747  3512 net.cpp:425] inception_3a/output_inception_3a/output_0_split <- inception_3a/output
I0703 20:45:45.428755  3512 net.cpp:399] inception_3a/output_inception_3a/output_0_split -> inception_3a/output_inception_3a/output_0_split_0
I0703 20:45:45.428767  3512 net.cpp:399] inception_3a/output_inception_3a/output_0_split -> inception_3a/output_inception_3a/output_0_split_1
I0703 20:45:45.428777  3512 net.cpp:399] inception_3a/output_inception_3a/output_0_split -> inception_3a/output_inception_3a/output_0_split_2
I0703 20:45:45.428786  3512 net.cpp:399] inception_3a/output_inception_3a/output_0_split -> inception_3a/output_inception_3a/output_0_split_3
I0703 20:45:45.428840  3512 net.cpp:141] Setting up inception_3a/output_inception_3a/output_0_split
I0703 20:45:45.428850  3512 net.cpp:148] Top shape: 10 256 28 28 (2007040)
I0703 20:45:45.428858  3512 net.cpp:148] Top shape: 10 256 28 28 (2007040)
I0703 20:45:45.428865  3512 net.cpp:148] Top shape: 10 256 28 28 (2007040)
I0703 20:45:45.428872  3512 net.cpp:148] Top shape: 10 256 28 28 (2007040)
I0703 20:45:45.428879  3512 net.cpp:156] Memory required for data: 273960960
I0703 20:45:45.428884  3512 layer_factory.hpp:77] Creating layer inception_3b/1x1
I0703 20:45:45.428899  3512 net.cpp:91] Creating Layer inception_3b/1x1
I0703 20:45:45.428905  3512 net.cpp:425] inception_3b/1x1 <- inception_3a/output_inception_3a/output_0_split_0
I0703 20:45:45.428915  3512 net.cpp:399] inception_3b/1x1 -> inception_3b/1x1
I0703 20:45:45.430889  3512 net.cpp:141] Setting up inception_3b/1x1
I0703 20:45:45.430912  3512 net.cpp:148] Top shape: 10 128 28 28 (1003520)
I0703 20:45:45.430924  3512 net.cpp:156] Memory required for data: 277975040
I0703 20:45:45.430949  3512 layer_factory.hpp:77] Creating layer inception_3b/relu_1x1
I0703 20:45:45.430964  3512 net.cpp:91] Creating Layer inception_3b/relu_1x1
I0703 20:45:45.430979  3512 net.cpp:425] inception_3b/relu_1x1 <- inception_3b/1x1
I0703 20:45:45.430995  3512 net.cpp:386] inception_3b/relu_1x1 -> inception_3b/1x1 (in-place)
I0703 20:45:45.431233  3512 net.cpp:141] Setting up inception_3b/relu_1x1
I0703 20:45:45.431253  3512 net.cpp:148] Top shape: 10 128 28 28 (1003520)
I0703 20:45:45.431265  3512 net.cpp:156] Memory required for data: 281989120
I0703 20:45:45.431288  3512 layer_factory.hpp:77] Creating layer inception_3b/3x3_reduce
I0703 20:45:45.431314  3512 net.cpp:91] Creating Layer inception_3b/3x3_reduce
I0703 20:45:45.431331  3512 net.cpp:425] inception_3b/3x3_reduce <- inception_3a/output_inception_3a/output_0_split_1
I0703 20:45:45.431350  3512 net.cpp:399] inception_3b/3x3_reduce -> inception_3b/3x3_reduce
I0703 20:45:45.432605  3512 net.cpp:141] Setting up inception_3b/3x3_reduce
I0703 20:45:45.432621  3512 net.cpp:148] Top shape: 10 128 28 28 (1003520)
I0703 20:45:45.432629  3512 net.cpp:156] Memory required for data: 286003200
I0703 20:45:45.432639  3512 layer_factory.hpp:77] Creating layer inception_3b/relu_3x3_reduce
I0703 20:45:45.432648  3512 net.cpp:91] Creating Layer inception_3b/relu_3x3_reduce
I0703 20:45:45.432657  3512 net.cpp:425] inception_3b/relu_3x3_reduce <- inception_3b/3x3_reduce
I0703 20:45:45.432667  3512 net.cpp:386] inception_3b/relu_3x3_reduce -> inception_3b/3x3_reduce (in-place)
I0703 20:45:45.432812  3512 net.cpp:141] Setting up inception_3b/relu_3x3_reduce
I0703 20:45:45.432826  3512 net.cpp:148] Top shape: 10 128 28 28 (1003520)
I0703 20:45:45.432832  3512 net.cpp:156] Memory required for data: 290017280
I0703 20:45:45.432838  3512 layer_factory.hpp:77] Creating layer inception_3b/3x3
I0703 20:45:45.432853  3512 net.cpp:91] Creating Layer inception_3b/3x3
I0703 20:45:45.432860  3512 net.cpp:425] inception_3b/3x3 <- inception_3b/3x3_reduce
I0703 20:45:45.432870  3512 net.cpp:399] inception_3b/3x3 -> inception_3b/3x3
I0703 20:45:45.435384  3512 net.cpp:141] Setting up inception_3b/3x3
I0703 20:45:45.435401  3512 net.cpp:148] Top shape: 10 192 28 28 (1505280)
I0703 20:45:45.435408  3512 net.cpp:156] Memory required for data: 296038400
I0703 20:45:45.435418  3512 layer_factory.hpp:77] Creating layer inception_3b/relu_3x3
I0703 20:45:45.435431  3512 net.cpp:91] Creating Layer inception_3b/relu_3x3
I0703 20:45:45.435438  3512 net.cpp:425] inception_3b/relu_3x3 <- inception_3b/3x3
I0703 20:45:45.435451  3512 net.cpp:386] inception_3b/relu_3x3 -> inception_3b/3x3 (in-place)
I0703 20:45:45.435704  3512 net.cpp:141] Setting up inception_3b/relu_3x3
I0703 20:45:45.435717  3512 net.cpp:148] Top shape: 10 192 28 28 (1505280)
I0703 20:45:45.435724  3512 net.cpp:156] Memory required for data: 302059520
I0703 20:45:45.435731  3512 layer_factory.hpp:77] Creating layer inception_3b/5x5_reduce
I0703 20:45:45.435745  3512 net.cpp:91] Creating Layer inception_3b/5x5_reduce
I0703 20:45:45.435753  3512 net.cpp:425] inception_3b/5x5_reduce <- inception_3a/output_inception_3a/output_0_split_2
I0703 20:45:45.435762  3512 net.cpp:399] inception_3b/5x5_reduce -> inception_3b/5x5_reduce
I0703 20:45:45.436655  3512 net.cpp:141] Setting up inception_3b/5x5_reduce
I0703 20:45:45.436671  3512 net.cpp:148] Top shape: 10 32 28 28 (250880)
I0703 20:45:45.436677  3512 net.cpp:156] Memory required for data: 303063040
I0703 20:45:45.436686  3512 layer_factory.hpp:77] Creating layer inception_3b/relu_5x5_reduce
I0703 20:45:45.436705  3512 net.cpp:91] Creating Layer inception_3b/relu_5x5_reduce
I0703 20:45:45.436712  3512 net.cpp:425] inception_3b/relu_5x5_reduce <- inception_3b/5x5_reduce
I0703 20:45:45.436720  3512 net.cpp:386] inception_3b/relu_5x5_reduce -> inception_3b/5x5_reduce (in-place)
I0703 20:45:45.436962  3512 net.cpp:141] Setting up inception_3b/relu_5x5_reduce
I0703 20:45:45.436980  3512 net.cpp:148] Top shape: 10 32 28 28 (250880)
I0703 20:45:45.436985  3512 net.cpp:156] Memory required for data: 304066560
I0703 20:45:45.436992  3512 layer_factory.hpp:77] Creating layer inception_3b/5x5
I0703 20:45:45.437005  3512 net.cpp:91] Creating Layer inception_3b/5x5
I0703 20:45:45.437013  3512 net.cpp:425] inception_3b/5x5 <- inception_3b/5x5_reduce
I0703 20:45:45.437022  3512 net.cpp:399] inception_3b/5x5 -> inception_3b/5x5
I0703 20:45:45.438642  3512 net.cpp:141] Setting up inception_3b/5x5
I0703 20:45:45.438658  3512 net.cpp:148] Top shape: 10 96 28 28 (752640)
I0703 20:45:45.438665  3512 net.cpp:156] Memory required for data: 307077120
I0703 20:45:45.438675  3512 layer_factory.hpp:77] Creating layer inception_3b/relu_5x5
I0703 20:45:45.438690  3512 net.cpp:91] Creating Layer inception_3b/relu_5x5
I0703 20:45:45.438699  3512 net.cpp:425] inception_3b/relu_5x5 <- inception_3b/5x5
I0703 20:45:45.438706  3512 net.cpp:386] inception_3b/relu_5x5 -> inception_3b/5x5 (in-place)
I0703 20:45:45.438851  3512 net.cpp:141] Setting up inception_3b/relu_5x5
I0703 20:45:45.438863  3512 net.cpp:148] Top shape: 10 96 28 28 (752640)
I0703 20:45:45.438868  3512 net.cpp:156] Memory required for data: 310087680
I0703 20:45:45.438875  3512 layer_factory.hpp:77] Creating layer inception_3b/pool
I0703 20:45:45.438884  3512 net.cpp:91] Creating Layer inception_3b/pool
I0703 20:45:45.438891  3512 net.cpp:425] inception_3b/pool <- inception_3a/output_inception_3a/output_0_split_3
I0703 20:45:45.438901  3512 net.cpp:399] inception_3b/pool -> inception_3b/pool
I0703 20:45:45.438942  3512 net.cpp:141] Setting up inception_3b/pool
I0703 20:45:45.438953  3512 net.cpp:148] Top shape: 10 256 28 28 (2007040)
I0703 20:45:45.438959  3512 net.cpp:156] Memory required for data: 318115840
I0703 20:45:45.438966  3512 layer_factory.hpp:77] Creating layer inception_3b/pool_proj
I0703 20:45:45.438977  3512 net.cpp:91] Creating Layer inception_3b/pool_proj
I0703 20:45:45.438984  3512 net.cpp:425] inception_3b/pool_proj <- inception_3b/pool
I0703 20:45:45.438994  3512 net.cpp:399] inception_3b/pool_proj -> inception_3b/pool_proj
I0703 20:45:45.439967  3512 net.cpp:141] Setting up inception_3b/pool_proj
I0703 20:45:45.439981  3512 net.cpp:148] Top shape: 10 64 28 28 (501760)
I0703 20:45:45.439988  3512 net.cpp:156] Memory required for data: 320122880
I0703 20:45:45.439997  3512 layer_factory.hpp:77] Creating layer inception_3b/relu_pool_proj
I0703 20:45:45.440006  3512 net.cpp:91] Creating Layer inception_3b/relu_pool_proj
I0703 20:45:45.440013  3512 net.cpp:425] inception_3b/relu_pool_proj <- inception_3b/pool_proj
I0703 20:45:45.440021  3512 net.cpp:386] inception_3b/relu_pool_proj -> inception_3b/pool_proj (in-place)
I0703 20:45:45.440268  3512 net.cpp:141] Setting up inception_3b/relu_pool_proj
I0703 20:45:45.440280  3512 net.cpp:148] Top shape: 10 64 28 28 (501760)
I0703 20:45:45.440287  3512 net.cpp:156] Memory required for data: 322129920
I0703 20:45:45.440294  3512 layer_factory.hpp:77] Creating layer inception_3b/output
I0703 20:45:45.440302  3512 net.cpp:91] Creating Layer inception_3b/output
I0703 20:45:45.440310  3512 net.cpp:425] inception_3b/output <- inception_3b/1x1
I0703 20:45:45.440317  3512 net.cpp:425] inception_3b/output <- inception_3b/3x3
I0703 20:45:45.440325  3512 net.cpp:425] inception_3b/output <- inception_3b/5x5
I0703 20:45:45.440331  3512 net.cpp:425] inception_3b/output <- inception_3b/pool_proj
I0703 20:45:45.440341  3512 net.cpp:399] inception_3b/output -> inception_3b/output
I0703 20:45:45.440371  3512 net.cpp:141] Setting up inception_3b/output
I0703 20:45:45.440382  3512 net.cpp:148] Top shape: 10 480 28 28 (3763200)
I0703 20:45:45.440387  3512 net.cpp:156] Memory required for data: 337182720
I0703 20:45:45.440394  3512 layer_factory.hpp:77] Creating layer pool3/3x3_s2
I0703 20:45:45.440402  3512 net.cpp:91] Creating Layer pool3/3x3_s2
I0703 20:45:45.440409  3512 net.cpp:425] pool3/3x3_s2 <- inception_3b/output
I0703 20:45:45.440418  3512 net.cpp:399] pool3/3x3_s2 -> pool3/3x3_s2
I0703 20:45:45.440459  3512 net.cpp:141] Setting up pool3/3x3_s2
I0703 20:45:45.440470  3512 net.cpp:148] Top shape: 10 480 14 14 (940800)
I0703 20:45:45.440476  3512 net.cpp:156] Memory required for data: 340945920
I0703 20:45:45.440484  3512 layer_factory.hpp:77] Creating layer pool3/3x3_s2_pool3/3x3_s2_0_split
I0703 20:45:45.440491  3512 net.cpp:91] Creating Layer pool3/3x3_s2_pool3/3x3_s2_0_split
I0703 20:45:45.440498  3512 net.cpp:425] pool3/3x3_s2_pool3/3x3_s2_0_split <- pool3/3x3_s2
I0703 20:45:45.440507  3512 net.cpp:399] pool3/3x3_s2_pool3/3x3_s2_0_split -> pool3/3x3_s2_pool3/3x3_s2_0_split_0
I0703 20:45:45.440516  3512 net.cpp:399] pool3/3x3_s2_pool3/3x3_s2_0_split -> pool3/3x3_s2_pool3/3x3_s2_0_split_1
I0703 20:45:45.440531  3512 net.cpp:399] pool3/3x3_s2_pool3/3x3_s2_0_split -> pool3/3x3_s2_pool3/3x3_s2_0_split_2
I0703 20:45:45.440539  3512 net.cpp:399] pool3/3x3_s2_pool3/3x3_s2_0_split -> pool3/3x3_s2_pool3/3x3_s2_0_split_3
I0703 20:45:45.440593  3512 net.cpp:141] Setting up pool3/3x3_s2_pool3/3x3_s2_0_split
I0703 20:45:45.440603  3512 net.cpp:148] Top shape: 10 480 14 14 (940800)
I0703 20:45:45.440613  3512 net.cpp:148] Top shape: 10 480 14 14 (940800)
I0703 20:45:45.440619  3512 net.cpp:148] Top shape: 10 480 14 14 (940800)
I0703 20:45:45.440626  3512 net.cpp:148] Top shape: 10 480 14 14 (940800)
I0703 20:45:45.440631  3512 net.cpp:156] Memory required for data: 355998720
I0703 20:45:45.440639  3512 layer_factory.hpp:77] Creating layer inception_4a/1x1
I0703 20:45:45.440649  3512 net.cpp:91] Creating Layer inception_4a/1x1
I0703 20:45:45.440656  3512 net.cpp:425] inception_4a/1x1 <- pool3/3x3_s2_pool3/3x3_s2_0_split_0
I0703 20:45:45.440666  3512 net.cpp:399] inception_4a/1x1 -> inception_4a/1x1
I0703 20:45:45.442139  3512 net.cpp:141] Setting up inception_4a/1x1
I0703 20:45:45.442154  3512 net.cpp:148] Top shape: 10 192 14 14 (376320)
I0703 20:45:45.442162  3512 net.cpp:156] Memory required for data: 357504000
I0703 20:45:45.442172  3512 layer_factory.hpp:77] Creating layer inception_4a/relu_1x1
I0703 20:45:45.442180  3512 net.cpp:91] Creating Layer inception_4a/relu_1x1
I0703 20:45:45.442188  3512 net.cpp:425] inception_4a/relu_1x1 <- inception_4a/1x1
I0703 20:45:45.442198  3512 net.cpp:386] inception_4a/relu_1x1 -> inception_4a/1x1 (in-place)
I0703 20:45:45.442387  3512 net.cpp:141] Setting up inception_4a/relu_1x1
I0703 20:45:45.442399  3512 net.cpp:148] Top shape: 10 192 14 14 (376320)
I0703 20:45:45.442405  3512 net.cpp:156] Memory required for data: 359009280
I0703 20:45:45.442412  3512 layer_factory.hpp:77] Creating layer inception_4a/3x3_reduce
I0703 20:45:45.442426  3512 net.cpp:91] Creating Layer inception_4a/3x3_reduce
I0703 20:45:45.442435  3512 net.cpp:425] inception_4a/3x3_reduce <- pool3/3x3_s2_pool3/3x3_s2_0_split_1
I0703 20:45:45.442451  3512 net.cpp:399] inception_4a/3x3_reduce -> inception_4a/3x3_reduce
I0703 20:45:45.444483  3512 net.cpp:141] Setting up inception_4a/3x3_reduce
I0703 20:45:45.444499  3512 net.cpp:148] Top shape: 10 96 14 14 (188160)
I0703 20:45:45.444505  3512 net.cpp:156] Memory required for data: 359761920
I0703 20:45:45.444521  3512 layer_factory.hpp:77] Creating layer inception_4a/relu_3x3_reduce
I0703 20:45:45.444530  3512 net.cpp:91] Creating Layer inception_4a/relu_3x3_reduce
I0703 20:45:45.444536  3512 net.cpp:425] inception_4a/relu_3x3_reduce <- inception_4a/3x3_reduce
I0703 20:45:45.444545  3512 net.cpp:386] inception_4a/relu_3x3_reduce -> inception_4a/3x3_reduce (in-place)
I0703 20:45:45.444691  3512 net.cpp:141] Setting up inception_4a/relu_3x3_reduce
I0703 20:45:45.444705  3512 net.cpp:148] Top shape: 10 96 14 14 (188160)
I0703 20:45:45.444710  3512 net.cpp:156] Memory required for data: 360514560
I0703 20:45:45.444716  3512 layer_factory.hpp:77] Creating layer inception_4a/3x3
I0703 20:45:45.444730  3512 net.cpp:91] Creating Layer inception_4a/3x3
I0703 20:45:45.444736  3512 net.cpp:425] inception_4a/3x3 <- inception_4a/3x3_reduce
I0703 20:45:45.444746  3512 net.cpp:399] inception_4a/3x3 -> inception_4a/3x3
I0703 20:45:45.447562  3512 net.cpp:141] Setting up inception_4a/3x3
I0703 20:45:45.447598  3512 net.cpp:148] Top shape: 10 208 14 14 (407680)
I0703 20:45:45.447613  3512 net.cpp:156] Memory required for data: 362145280
I0703 20:45:45.447640  3512 layer_factory.hpp:77] Creating layer inception_4a/relu_3x3
I0703 20:45:45.447659  3512 net.cpp:91] Creating Layer inception_4a/relu_3x3
I0703 20:45:45.447671  3512 net.cpp:425] inception_4a/relu_3x3 <- inception_4a/3x3
I0703 20:45:45.447685  3512 net.cpp:386] inception_4a/relu_3x3 -> inception_4a/3x3 (in-place)
I0703 20:45:45.447975  3512 net.cpp:141] Setting up inception_4a/relu_3x3
I0703 20:45:45.447990  3512 net.cpp:148] Top shape: 10 208 14 14 (407680)
I0703 20:45:45.447998  3512 net.cpp:156] Memory required for data: 363776000
I0703 20:45:45.448010  3512 layer_factory.hpp:77] Creating layer inception_4a/5x5_reduce
I0703 20:45:45.448024  3512 net.cpp:91] Creating Layer inception_4a/5x5_reduce
I0703 20:45:45.448032  3512 net.cpp:425] inception_4a/5x5_reduce <- pool3/3x3_s2_pool3/3x3_s2_0_split_2
I0703 20:45:45.448045  3512 net.cpp:399] inception_4a/5x5_reduce -> inception_4a/5x5_reduce
I0703 20:45:45.449004  3512 net.cpp:141] Setting up inception_4a/5x5_reduce
I0703 20:45:45.449019  3512 net.cpp:148] Top shape: 10 16 14 14 (31360)
I0703 20:45:45.449026  3512 net.cpp:156] Memory required for data: 363901440
I0703 20:45:45.449036  3512 layer_factory.hpp:77] Creating layer inception_4a/relu_5x5_reduce
I0703 20:45:45.449045  3512 net.cpp:91] Creating Layer inception_4a/relu_5x5_reduce
I0703 20:45:45.449053  3512 net.cpp:425] inception_4a/relu_5x5_reduce <- inception_4a/5x5_reduce
I0703 20:45:45.449062  3512 net.cpp:386] inception_4a/relu_5x5_reduce -> inception_4a/5x5_reduce (in-place)
I0703 20:45:45.449208  3512 net.cpp:141] Setting up inception_4a/relu_5x5_reduce
I0703 20:45:45.449221  3512 net.cpp:148] Top shape: 10 16 14 14 (31360)
I0703 20:45:45.449228  3512 net.cpp:156] Memory required for data: 364026880
I0703 20:45:45.449234  3512 layer_factory.hpp:77] Creating layer inception_4a/5x5
I0703 20:45:45.449247  3512 net.cpp:91] Creating Layer inception_4a/5x5
I0703 20:45:45.449255  3512 net.cpp:425] inception_4a/5x5 <- inception_4a/5x5_reduce
I0703 20:45:45.449265  3512 net.cpp:399] inception_4a/5x5 -> inception_4a/5x5
I0703 20:45:45.450260  3512 net.cpp:141] Setting up inception_4a/5x5
I0703 20:45:45.450275  3512 net.cpp:148] Top shape: 10 48 14 14 (94080)
I0703 20:45:45.450283  3512 net.cpp:156] Memory required for data: 364403200
I0703 20:45:45.450292  3512 layer_factory.hpp:77] Creating layer inception_4a/relu_5x5
I0703 20:45:45.450301  3512 net.cpp:91] Creating Layer inception_4a/relu_5x5
I0703 20:45:45.450309  3512 net.cpp:425] inception_4a/relu_5x5 <- inception_4a/5x5
I0703 20:45:45.450319  3512 net.cpp:386] inception_4a/relu_5x5 -> inception_4a/5x5 (in-place)
I0703 20:45:45.450471  3512 net.cpp:141] Setting up inception_4a/relu_5x5
I0703 20:45:45.450486  3512 net.cpp:148] Top shape: 10 48 14 14 (94080)
I0703 20:45:45.450492  3512 net.cpp:156] Memory required for data: 364779520
I0703 20:45:45.450500  3512 layer_factory.hpp:77] Creating layer inception_4a/pool
I0703 20:45:45.450508  3512 net.cpp:91] Creating Layer inception_4a/pool
I0703 20:45:45.450515  3512 net.cpp:425] inception_4a/pool <- pool3/3x3_s2_pool3/3x3_s2_0_split_3
I0703 20:45:45.450523  3512 net.cpp:399] inception_4a/pool -> inception_4a/pool
I0703 20:45:45.450567  3512 net.cpp:141] Setting up inception_4a/pool
I0703 20:45:45.450577  3512 net.cpp:148] Top shape: 10 480 14 14 (940800)
I0703 20:45:45.450583  3512 net.cpp:156] Memory required for data: 368542720
I0703 20:45:45.450589  3512 layer_factory.hpp:77] Creating layer inception_4a/pool_proj
I0703 20:45:45.450603  3512 net.cpp:91] Creating Layer inception_4a/pool_proj
I0703 20:45:45.450609  3512 net.cpp:425] inception_4a/pool_proj <- inception_4a/pool
I0703 20:45:45.450620  3512 net.cpp:399] inception_4a/pool_proj -> inception_4a/pool_proj
I0703 20:45:45.451759  3512 net.cpp:141] Setting up inception_4a/pool_proj
I0703 20:45:45.451773  3512 net.cpp:148] Top shape: 10 64 14 14 (125440)
I0703 20:45:45.451781  3512 net.cpp:156] Memory required for data: 369044480
I0703 20:45:45.451789  3512 layer_factory.hpp:77] Creating layer inception_4a/relu_pool_proj
I0703 20:45:45.451798  3512 net.cpp:91] Creating Layer inception_4a/relu_pool_proj
I0703 20:45:45.451805  3512 net.cpp:425] inception_4a/relu_pool_proj <- inception_4a/pool_proj
I0703 20:45:45.451815  3512 net.cpp:386] inception_4a/relu_pool_proj -> inception_4a/pool_proj (in-place)
I0703 20:45:45.452070  3512 net.cpp:141] Setting up inception_4a/relu_pool_proj
I0703 20:45:45.452083  3512 net.cpp:148] Top shape: 10 64 14 14 (125440)
I0703 20:45:45.452090  3512 net.cpp:156] Memory required for data: 369546240
I0703 20:45:45.452096  3512 layer_factory.hpp:77] Creating layer inception_4a/output
I0703 20:45:45.452110  3512 net.cpp:91] Creating Layer inception_4a/output
I0703 20:45:45.452116  3512 net.cpp:425] inception_4a/output <- inception_4a/1x1
I0703 20:45:45.452124  3512 net.cpp:425] inception_4a/output <- inception_4a/3x3
I0703 20:45:45.452131  3512 net.cpp:425] inception_4a/output <- inception_4a/5x5
I0703 20:45:45.452138  3512 net.cpp:425] inception_4a/output <- inception_4a/pool_proj
I0703 20:45:45.452147  3512 net.cpp:399] inception_4a/output -> inception_4a/output
I0703 20:45:45.452177  3512 net.cpp:141] Setting up inception_4a/output
I0703 20:45:45.452188  3512 net.cpp:148] Top shape: 10 512 14 14 (1003520)
I0703 20:45:45.452194  3512 net.cpp:156] Memory required for data: 373560320
I0703 20:45:45.452200  3512 layer_factory.hpp:77] Creating layer inception_4a/output_inception_4a/output_0_split
I0703 20:45:45.452209  3512 net.cpp:91] Creating Layer inception_4a/output_inception_4a/output_0_split
I0703 20:45:45.452216  3512 net.cpp:425] inception_4a/output_inception_4a/output_0_split <- inception_4a/output
I0703 20:45:45.452224  3512 net.cpp:399] inception_4a/output_inception_4a/output_0_split -> inception_4a/output_inception_4a/output_0_split_0
I0703 20:45:45.452234  3512 net.cpp:399] inception_4a/output_inception_4a/output_0_split -> inception_4a/output_inception_4a/output_0_split_1
I0703 20:45:45.452244  3512 net.cpp:399] inception_4a/output_inception_4a/output_0_split -> inception_4a/output_inception_4a/output_0_split_2
I0703 20:45:45.452255  3512 net.cpp:399] inception_4a/output_inception_4a/output_0_split -> inception_4a/output_inception_4a/output_0_split_3
I0703 20:45:45.452312  3512 net.cpp:141] Setting up inception_4a/output_inception_4a/output_0_split
I0703 20:45:45.452322  3512 net.cpp:148] Top shape: 10 512 14 14 (1003520)
I0703 20:45:45.452329  3512 net.cpp:148] Top shape: 10 512 14 14 (1003520)
I0703 20:45:45.452337  3512 net.cpp:148] Top shape: 10 512 14 14 (1003520)
I0703 20:45:45.452343  3512 net.cpp:148] Top shape: 10 512 14 14 (1003520)
I0703 20:45:45.452348  3512 net.cpp:156] Memory required for data: 389616640
I0703 20:45:45.452354  3512 layer_factory.hpp:77] Creating layer inception_4b/1x1
I0703 20:45:45.452368  3512 net.cpp:91] Creating Layer inception_4b/1x1
I0703 20:45:45.452375  3512 net.cpp:425] inception_4b/1x1 <- inception_4a/output_inception_4a/output_0_split_0
I0703 20:45:45.452383  3512 net.cpp:399] inception_4b/1x1 -> inception_4b/1x1
I0703 20:45:45.453694  3512 net.cpp:141] Setting up inception_4b/1x1
I0703 20:45:45.453709  3512 net.cpp:148] Top shape: 10 160 14 14 (313600)
I0703 20:45:45.453716  3512 net.cpp:156] Memory required for data: 390871040
I0703 20:45:45.453725  3512 layer_factory.hpp:77] Creating layer inception_4b/relu_1x1
I0703 20:45:45.453735  3512 net.cpp:91] Creating Layer inception_4b/relu_1x1
I0703 20:45:45.453743  3512 net.cpp:425] inception_4b/relu_1x1 <- inception_4b/1x1
I0703 20:45:45.453752  3512 net.cpp:386] inception_4b/relu_1x1 -> inception_4b/1x1 (in-place)
I0703 20:45:45.453893  3512 net.cpp:141] Setting up inception_4b/relu_1x1
I0703 20:45:45.453904  3512 net.cpp:148] Top shape: 10 160 14 14 (313600)
I0703 20:45:45.453912  3512 net.cpp:156] Memory required for data: 392125440
I0703 20:45:45.453917  3512 layer_factory.hpp:77] Creating layer inception_4b/3x3_reduce
I0703 20:45:45.453930  3512 net.cpp:91] Creating Layer inception_4b/3x3_reduce
I0703 20:45:45.453938  3512 net.cpp:425] inception_4b/3x3_reduce <- inception_4a/output_inception_4a/output_0_split_1
I0703 20:45:45.453948  3512 net.cpp:399] inception_4b/3x3_reduce -> inception_4b/3x3_reduce
I0703 20:45:45.455134  3512 net.cpp:141] Setting up inception_4b/3x3_reduce
I0703 20:45:45.455148  3512 net.cpp:148] Top shape: 10 112 14 14 (219520)
I0703 20:45:45.455155  3512 net.cpp:156] Memory required for data: 393003520
I0703 20:45:45.455165  3512 layer_factory.hpp:77] Creating layer inception_4b/relu_3x3_reduce
I0703 20:45:45.455175  3512 net.cpp:91] Creating Layer inception_4b/relu_3x3_reduce
I0703 20:45:45.455183  3512 net.cpp:425] inception_4b/relu_3x3_reduce <- inception_4b/3x3_reduce
I0703 20:45:45.455194  3512 net.cpp:386] inception_4b/relu_3x3_reduce -> inception_4b/3x3_reduce (in-place)
I0703 20:45:45.455339  3512 net.cpp:141] Setting up inception_4b/relu_3x3_reduce
I0703 20:45:45.455351  3512 net.cpp:148] Top shape: 10 112 14 14 (219520)
I0703 20:45:45.455358  3512 net.cpp:156] Memory required for data: 393881600
I0703 20:45:45.455363  3512 layer_factory.hpp:77] Creating layer inception_4b/3x3
I0703 20:45:45.455377  3512 net.cpp:91] Creating Layer inception_4b/3x3
I0703 20:45:45.455384  3512 net.cpp:425] inception_4b/3x3 <- inception_4b/3x3_reduce
I0703 20:45:45.455394  3512 net.cpp:399] inception_4b/3x3 -> inception_4b/3x3
I0703 20:45:45.457880  3512 net.cpp:141] Setting up inception_4b/3x3
I0703 20:45:45.457895  3512 net.cpp:148] Top shape: 10 224 14 14 (439040)
I0703 20:45:45.457911  3512 net.cpp:156] Memory required for data: 395637760
I0703 20:45:45.457921  3512 layer_factory.hpp:77] Creating layer inception_4b/relu_3x3
I0703 20:45:45.457931  3512 net.cpp:91] Creating Layer inception_4b/relu_3x3
I0703 20:45:45.457939  3512 net.cpp:425] inception_4b/relu_3x3 <- inception_4b/3x3
I0703 20:45:45.457955  3512 net.cpp:386] inception_4b/relu_3x3 -> inception_4b/3x3 (in-place)
I0703 20:45:45.458204  3512 net.cpp:141] Setting up inception_4b/relu_3x3
I0703 20:45:45.458217  3512 net.cpp:148] Top shape: 10 224 14 14 (439040)
I0703 20:45:45.458225  3512 net.cpp:156] Memory required for data: 397393920
I0703 20:45:45.458230  3512 layer_factory.hpp:77] Creating layer inception_4b/5x5_reduce
I0703 20:45:45.458250  3512 net.cpp:91] Creating Layer inception_4b/5x5_reduce
I0703 20:45:45.458258  3512 net.cpp:425] inception_4b/5x5_reduce <- inception_4a/output_inception_4a/output_0_split_2
I0703 20:45:45.458269  3512 net.cpp:399] inception_4b/5x5_reduce -> inception_4b/5x5_reduce
I0703 20:45:45.459231  3512 net.cpp:141] Setting up inception_4b/5x5_reduce
I0703 20:45:45.459245  3512 net.cpp:148] Top shape: 10 24 14 14 (47040)
I0703 20:45:45.459252  3512 net.cpp:156] Memory required for data: 397582080
I0703 20:45:45.459262  3512 layer_factory.hpp:77] Creating layer inception_4b/relu_5x5_reduce
I0703 20:45:45.459270  3512 net.cpp:91] Creating Layer inception_4b/relu_5x5_reduce
I0703 20:45:45.459277  3512 net.cpp:425] inception_4b/relu_5x5_reduce <- inception_4b/5x5_reduce
I0703 20:45:45.459285  3512 net.cpp:386] inception_4b/relu_5x5_reduce -> inception_4b/5x5_reduce (in-place)
I0703 20:45:45.459429  3512 net.cpp:141] Setting up inception_4b/relu_5x5_reduce
I0703 20:45:45.459441  3512 net.cpp:148] Top shape: 10 24 14 14 (47040)
I0703 20:45:45.459447  3512 net.cpp:156] Memory required for data: 397770240
I0703 20:45:45.459455  3512 layer_factory.hpp:77] Creating layer inception_4b/5x5
I0703 20:45:45.459466  3512 net.cpp:91] Creating Layer inception_4b/5x5
I0703 20:45:45.459473  3512 net.cpp:425] inception_4b/5x5 <- inception_4b/5x5_reduce
I0703 20:45:45.459484  3512 net.cpp:399] inception_4b/5x5 -> inception_4b/5x5
I0703 20:45:45.460903  3512 net.cpp:141] Setting up inception_4b/5x5
I0703 20:45:45.460918  3512 net.cpp:148] Top shape: 10 64 14 14 (125440)
I0703 20:45:45.460924  3512 net.cpp:156] Memory required for data: 398272000
I0703 20:45:45.460934  3512 layer_factory.hpp:77] Creating layer inception_4b/relu_5x5
I0703 20:45:45.460944  3512 net.cpp:91] Creating Layer inception_4b/relu_5x5
I0703 20:45:45.460952  3512 net.cpp:425] inception_4b/relu_5x5 <- inception_4b/5x5
I0703 20:45:45.460959  3512 net.cpp:386] inception_4b/relu_5x5 -> inception_4b/5x5 (in-place)
I0703 20:45:45.461104  3512 net.cpp:141] Setting up inception_4b/relu_5x5
I0703 20:45:45.461117  3512 net.cpp:148] Top shape: 10 64 14 14 (125440)
I0703 20:45:45.461122  3512 net.cpp:156] Memory required for data: 398773760
I0703 20:45:45.461130  3512 layer_factory.hpp:77] Creating layer inception_4b/pool
I0703 20:45:45.461148  3512 net.cpp:91] Creating Layer inception_4b/pool
I0703 20:45:45.461154  3512 net.cpp:425] inception_4b/pool <- inception_4a/output_inception_4a/output_0_split_3
I0703 20:45:45.461163  3512 net.cpp:399] inception_4b/pool -> inception_4b/pool
I0703 20:45:45.461230  3512 net.cpp:141] Setting up inception_4b/pool
I0703 20:45:45.461249  3512 net.cpp:148] Top shape: 10 512 14 14 (1003520)
I0703 20:45:45.461263  3512 net.cpp:156] Memory required for data: 402787840
I0703 20:45:45.461269  3512 layer_factory.hpp:77] Creating layer inception_4b/pool_proj
I0703 20:45:45.461282  3512 net.cpp:91] Creating Layer inception_4b/pool_proj
I0703 20:45:45.461288  3512 net.cpp:425] inception_4b/pool_proj <- inception_4b/pool
I0703 20:45:45.461308  3512 net.cpp:399] inception_4b/pool_proj -> inception_4b/pool_proj
I0703 20:45:45.462348  3512 net.cpp:141] Setting up inception_4b/pool_proj
I0703 20:45:45.462363  3512 net.cpp:148] Top shape: 10 64 14 14 (125440)
I0703 20:45:45.462369  3512 net.cpp:156] Memory required for data: 403289600
I0703 20:45:45.462379  3512 layer_factory.hpp:77] Creating layer inception_4b/relu_pool_proj
I0703 20:45:45.462388  3512 net.cpp:91] Creating Layer inception_4b/relu_pool_proj
I0703 20:45:45.462394  3512 net.cpp:425] inception_4b/relu_pool_proj <- inception_4b/pool_proj
I0703 20:45:45.462404  3512 net.cpp:386] inception_4b/relu_pool_proj -> inception_4b/pool_proj (in-place)
I0703 20:45:45.462657  3512 net.cpp:141] Setting up inception_4b/relu_pool_proj
I0703 20:45:45.462671  3512 net.cpp:148] Top shape: 10 64 14 14 (125440)
I0703 20:45:45.462677  3512 net.cpp:156] Memory required for data: 403791360
I0703 20:45:45.462683  3512 layer_factory.hpp:77] Creating layer inception_4b/output
I0703 20:45:45.462692  3512 net.cpp:91] Creating Layer inception_4b/output
I0703 20:45:45.462699  3512 net.cpp:425] inception_4b/output <- inception_4b/1x1
I0703 20:45:45.462707  3512 net.cpp:425] inception_4b/output <- inception_4b/3x3
I0703 20:45:45.462713  3512 net.cpp:425] inception_4b/output <- inception_4b/5x5
I0703 20:45:45.462720  3512 net.cpp:425] inception_4b/output <- inception_4b/pool_proj
I0703 20:45:45.462729  3512 net.cpp:399] inception_4b/output -> inception_4b/output
I0703 20:45:45.462761  3512 net.cpp:141] Setting up inception_4b/output
I0703 20:45:45.462771  3512 net.cpp:148] Top shape: 10 512 14 14 (1003520)
I0703 20:45:45.462777  3512 net.cpp:156] Memory required for data: 407805440
I0703 20:45:45.462784  3512 layer_factory.hpp:77] Creating layer inception_4b/output_inception_4b/output_0_split
I0703 20:45:45.462791  3512 net.cpp:91] Creating Layer inception_4b/output_inception_4b/output_0_split
I0703 20:45:45.462798  3512 net.cpp:425] inception_4b/output_inception_4b/output_0_split <- inception_4b/output
I0703 20:45:45.462805  3512 net.cpp:399] inception_4b/output_inception_4b/output_0_split -> inception_4b/output_inception_4b/output_0_split_0
I0703 20:45:45.462816  3512 net.cpp:399] inception_4b/output_inception_4b/output_0_split -> inception_4b/output_inception_4b/output_0_split_1
I0703 20:45:45.462826  3512 net.cpp:399] inception_4b/output_inception_4b/output_0_split -> inception_4b/output_inception_4b/output_0_split_2
I0703 20:45:45.462836  3512 net.cpp:399] inception_4b/output_inception_4b/output_0_split -> inception_4b/output_inception_4b/output_0_split_3
I0703 20:45:45.462896  3512 net.cpp:141] Setting up inception_4b/output_inception_4b/output_0_split
I0703 20:45:45.462906  3512 net.cpp:148] Top shape: 10 512 14 14 (1003520)
I0703 20:45:45.462913  3512 net.cpp:148] Top shape: 10 512 14 14 (1003520)
I0703 20:45:45.462920  3512 net.cpp:148] Top shape: 10 512 14 14 (1003520)
I0703 20:45:45.462926  3512 net.cpp:148] Top shape: 10 512 14 14 (1003520)
I0703 20:45:45.462932  3512 net.cpp:156] Memory required for data: 423861760
I0703 20:45:45.462939  3512 layer_factory.hpp:77] Creating layer inception_4c/1x1
I0703 20:45:45.462952  3512 net.cpp:91] Creating Layer inception_4c/1x1
I0703 20:45:45.462960  3512 net.cpp:425] inception_4c/1x1 <- inception_4b/output_inception_4b/output_0_split_0
I0703 20:45:45.462968  3512 net.cpp:399] inception_4c/1x1 -> inception_4c/1x1
I0703 20:45:45.464184  3512 net.cpp:141] Setting up inception_4c/1x1
I0703 20:45:45.464197  3512 net.cpp:148] Top shape: 10 128 14 14 (250880)
I0703 20:45:45.464208  3512 net.cpp:156] Memory required for data: 424865280
I0703 20:45:45.464217  3512 layer_factory.hpp:77] Creating layer inception_4c/relu_1x1
I0703 20:45:45.464227  3512 net.cpp:91] Creating Layer inception_4c/relu_1x1
I0703 20:45:45.464236  3512 net.cpp:425] inception_4c/relu_1x1 <- inception_4c/1x1
I0703 20:45:45.464244  3512 net.cpp:386] inception_4c/relu_1x1 -> inception_4c/1x1 (in-place)
I0703 20:45:45.464387  3512 net.cpp:141] Setting up inception_4c/relu_1x1
I0703 20:45:45.464398  3512 net.cpp:148] Top shape: 10 128 14 14 (250880)
I0703 20:45:45.464406  3512 net.cpp:156] Memory required for data: 425868800
I0703 20:45:45.464411  3512 layer_factory.hpp:77] Creating layer inception_4c/3x3_reduce
I0703 20:45:45.464423  3512 net.cpp:91] Creating Layer inception_4c/3x3_reduce
I0703 20:45:45.464431  3512 net.cpp:425] inception_4c/3x3_reduce <- inception_4b/output_inception_4b/output_0_split_1
I0703 20:45:45.464442  3512 net.cpp:399] inception_4c/3x3_reduce -> inception_4c/3x3_reduce
I0703 20:45:45.465786  3512 net.cpp:141] Setting up inception_4c/3x3_reduce
I0703 20:45:45.465801  3512 net.cpp:148] Top shape: 10 128 14 14 (250880)
I0703 20:45:45.465806  3512 net.cpp:156] Memory required for data: 426872320
I0703 20:45:45.465816  3512 layer_factory.hpp:77] Creating layer inception_4c/relu_3x3_reduce
I0703 20:45:45.465826  3512 net.cpp:91] Creating Layer inception_4c/relu_3x3_reduce
I0703 20:45:45.465833  3512 net.cpp:425] inception_4c/relu_3x3_reduce <- inception_4c/3x3_reduce
I0703 20:45:45.465842  3512 net.cpp:386] inception_4c/relu_3x3_reduce -> inception_4c/3x3_reduce (in-place)
I0703 20:45:45.465984  3512 net.cpp:141] Setting up inception_4c/relu_3x3_reduce
I0703 20:45:45.465998  3512 net.cpp:148] Top shape: 10 128 14 14 (250880)
I0703 20:45:45.466006  3512 net.cpp:156] Memory required for data: 427875840
I0703 20:45:45.466012  3512 layer_factory.hpp:77] Creating layer inception_4c/3x3
I0703 20:45:45.466024  3512 net.cpp:91] Creating Layer inception_4c/3x3
I0703 20:45:45.466032  3512 net.cpp:425] inception_4c/3x3 <- inception_4c/3x3_reduce
I0703 20:45:45.466040  3512 net.cpp:399] inception_4c/3x3 -> inception_4c/3x3
I0703 20:45:45.468907  3512 net.cpp:141] Setting up inception_4c/3x3
I0703 20:45:45.468922  3512 net.cpp:148] Top shape: 10 256 14 14 (501760)
I0703 20:45:45.468938  3512 net.cpp:156] Memory required for data: 429882880
I0703 20:45:45.468948  3512 layer_factory.hpp:77] Creating layer inception_4c/relu_3x3
I0703 20:45:45.468958  3512 net.cpp:91] Creating Layer inception_4c/relu_3x3
I0703 20:45:45.468966  3512 net.cpp:425] inception_4c/relu_3x3 <- inception_4c/3x3
I0703 20:45:45.468982  3512 net.cpp:386] inception_4c/relu_3x3 -> inception_4c/3x3 (in-place)
I0703 20:45:45.469231  3512 net.cpp:141] Setting up inception_4c/relu_3x3
I0703 20:45:45.469244  3512 net.cpp:148] Top shape: 10 256 14 14 (501760)
I0703 20:45:45.469250  3512 net.cpp:156] Memory required for data: 431889920
I0703 20:45:45.469257  3512 layer_factory.hpp:77] Creating layer inception_4c/5x5_reduce
I0703 20:45:45.469271  3512 net.cpp:91] Creating Layer inception_4c/5x5_reduce
I0703 20:45:45.469279  3512 net.cpp:425] inception_4c/5x5_reduce <- inception_4b/output_inception_4b/output_0_split_2
I0703 20:45:45.469287  3512 net.cpp:399] inception_4c/5x5_reduce -> inception_4c/5x5_reduce
I0703 20:45:45.470249  3512 net.cpp:141] Setting up inception_4c/5x5_reduce
I0703 20:45:45.470266  3512 net.cpp:148] Top shape: 10 24 14 14 (47040)
I0703 20:45:45.470273  3512 net.cpp:156] Memory required for data: 432078080
I0703 20:45:45.470283  3512 layer_factory.hpp:77] Creating layer inception_4c/relu_5x5_reduce
I0703 20:45:45.470291  3512 net.cpp:91] Creating Layer inception_4c/relu_5x5_reduce
I0703 20:45:45.470299  3512 net.cpp:425] inception_4c/relu_5x5_reduce <- inception_4c/5x5_reduce
I0703 20:45:45.470306  3512 net.cpp:386] inception_4c/relu_5x5_reduce -> inception_4c/5x5_reduce (in-place)
I0703 20:45:45.470450  3512 net.cpp:141] Setting up inception_4c/relu_5x5_reduce
I0703 20:45:45.470463  3512 net.cpp:148] Top shape: 10 24 14 14 (47040)
I0703 20:45:45.470473  3512 net.cpp:156] Memory required for data: 432266240
I0703 20:45:45.470479  3512 layer_factory.hpp:77] Creating layer inception_4c/5x5
I0703 20:45:45.470491  3512 net.cpp:91] Creating Layer inception_4c/5x5
I0703 20:45:45.470499  3512 net.cpp:425] inception_4c/5x5 <- inception_4c/5x5_reduce
I0703 20:45:45.470510  3512 net.cpp:399] inception_4c/5x5 -> inception_4c/5x5
I0703 20:45:45.471596  3512 net.cpp:141] Setting up inception_4c/5x5
I0703 20:45:45.471609  3512 net.cpp:148] Top shape: 10 64 14 14 (125440)
I0703 20:45:45.471616  3512 net.cpp:156] Memory required for data: 432768000
I0703 20:45:45.471626  3512 layer_factory.hpp:77] Creating layer inception_4c/relu_5x5
I0703 20:45:45.471634  3512 net.cpp:91] Creating Layer inception_4c/relu_5x5
I0703 20:45:45.471642  3512 net.cpp:425] inception_4c/relu_5x5 <- inception_4c/5x5
I0703 20:45:45.471652  3512 net.cpp:386] inception_4c/relu_5x5 -> inception_4c/5x5 (in-place)
I0703 20:45:45.471793  3512 net.cpp:141] Setting up inception_4c/relu_5x5
I0703 20:45:45.471807  3512 net.cpp:148] Top shape: 10 64 14 14 (125440)
I0703 20:45:45.471813  3512 net.cpp:156] Memory required for data: 433269760
I0703 20:45:45.471819  3512 layer_factory.hpp:77] Creating layer inception_4c/pool
I0703 20:45:45.471828  3512 net.cpp:91] Creating Layer inception_4c/pool
I0703 20:45:45.471834  3512 net.cpp:425] inception_4c/pool <- inception_4b/output_inception_4b/output_0_split_3
I0703 20:45:45.471843  3512 net.cpp:399] inception_4c/pool -> inception_4c/pool
I0703 20:45:45.471887  3512 net.cpp:141] Setting up inception_4c/pool
I0703 20:45:45.471897  3512 net.cpp:148] Top shape: 10 512 14 14 (1003520)
I0703 20:45:45.471904  3512 net.cpp:156] Memory required for data: 437283840
I0703 20:45:45.471909  3512 layer_factory.hpp:77] Creating layer inception_4c/pool_proj
I0703 20:45:45.471922  3512 net.cpp:91] Creating Layer inception_4c/pool_proj
I0703 20:45:45.471930  3512 net.cpp:425] inception_4c/pool_proj <- inception_4c/pool
I0703 20:45:45.471940  3512 net.cpp:399] inception_4c/pool_proj -> inception_4c/pool_proj
I0703 20:45:45.473359  3512 net.cpp:141] Setting up inception_4c/pool_proj
I0703 20:45:45.473376  3512 net.cpp:148] Top shape: 10 64 14 14 (125440)
I0703 20:45:45.473382  3512 net.cpp:156] Memory required for data: 437785600
I0703 20:45:45.473404  3512 layer_factory.hpp:77] Creating layer inception_4c/relu_pool_proj
I0703 20:45:45.473415  3512 net.cpp:91] Creating Layer inception_4c/relu_pool_proj
I0703 20:45:45.473423  3512 net.cpp:425] inception_4c/relu_pool_proj <- inception_4c/pool_proj
I0703 20:45:45.473431  3512 net.cpp:386] inception_4c/relu_pool_proj -> inception_4c/pool_proj (in-place)
I0703 20:45:45.473695  3512 net.cpp:141] Setting up inception_4c/relu_pool_proj
I0703 20:45:45.473708  3512 net.cpp:148] Top shape: 10 64 14 14 (125440)
I0703 20:45:45.473714  3512 net.cpp:156] Memory required for data: 438287360
I0703 20:45:45.473721  3512 layer_factory.hpp:77] Creating layer inception_4c/output
I0703 20:45:45.473732  3512 net.cpp:91] Creating Layer inception_4c/output
I0703 20:45:45.473739  3512 net.cpp:425] inception_4c/output <- inception_4c/1x1
I0703 20:45:45.473747  3512 net.cpp:425] inception_4c/output <- inception_4c/3x3
I0703 20:45:45.473754  3512 net.cpp:425] inception_4c/output <- inception_4c/5x5
I0703 20:45:45.473762  3512 net.cpp:425] inception_4c/output <- inception_4c/pool_proj
I0703 20:45:45.473768  3512 net.cpp:399] inception_4c/output -> inception_4c/output
I0703 20:45:45.473801  3512 net.cpp:141] Setting up inception_4c/output
I0703 20:45:45.473812  3512 net.cpp:148] Top shape: 10 512 14 14 (1003520)
I0703 20:45:45.473819  3512 net.cpp:156] Memory required for data: 442301440
I0703 20:45:45.473824  3512 layer_factory.hpp:77] Creating layer inception_4c/output_inception_4c/output_0_split
I0703 20:45:45.473834  3512 net.cpp:91] Creating Layer inception_4c/output_inception_4c/output_0_split
I0703 20:45:45.473839  3512 net.cpp:425] inception_4c/output_inception_4c/output_0_split <- inception_4c/output
I0703 20:45:45.473850  3512 net.cpp:399] inception_4c/output_inception_4c/output_0_split -> inception_4c/output_inception_4c/output_0_split_0
I0703 20:45:45.473865  3512 net.cpp:399] inception_4c/output_inception_4c/output_0_split -> inception_4c/output_inception_4c/output_0_split_1
I0703 20:45:45.473875  3512 net.cpp:399] inception_4c/output_inception_4c/output_0_split -> inception_4c/output_inception_4c/output_0_split_2
I0703 20:45:45.473884  3512 net.cpp:399] inception_4c/output_inception_4c/output_0_split -> inception_4c/output_inception_4c/output_0_split_3
I0703 20:45:45.473948  3512 net.cpp:141] Setting up inception_4c/output_inception_4c/output_0_split
I0703 20:45:45.473959  3512 net.cpp:148] Top shape: 10 512 14 14 (1003520)
I0703 20:45:45.473966  3512 net.cpp:148] Top shape: 10 512 14 14 (1003520)
I0703 20:45:45.473973  3512 net.cpp:148] Top shape: 10 512 14 14 (1003520)
I0703 20:45:45.473980  3512 net.cpp:148] Top shape: 10 512 14 14 (1003520)
I0703 20:45:45.473986  3512 net.cpp:156] Memory required for data: 458357760
I0703 20:45:45.473994  3512 layer_factory.hpp:77] Creating layer inception_4d/1x1
I0703 20:45:45.474006  3512 net.cpp:91] Creating Layer inception_4d/1x1
I0703 20:45:45.474014  3512 net.cpp:425] inception_4d/1x1 <- inception_4c/output_inception_4c/output_0_split_0
I0703 20:45:45.474032  3512 net.cpp:399] inception_4d/1x1 -> inception_4d/1x1
I0703 20:45:45.476032  3512 net.cpp:141] Setting up inception_4d/1x1
I0703 20:45:45.476047  3512 net.cpp:148] Top shape: 10 112 14 14 (219520)
I0703 20:45:45.476055  3512 net.cpp:156] Memory required for data: 459235840
I0703 20:45:45.476064  3512 layer_factory.hpp:77] Creating layer inception_4d/relu_1x1
I0703 20:45:45.476075  3512 net.cpp:91] Creating Layer inception_4d/relu_1x1
I0703 20:45:45.476083  3512 net.cpp:425] inception_4d/relu_1x1 <- inception_4d/1x1
I0703 20:45:45.476091  3512 net.cpp:386] inception_4d/relu_1x1 -> inception_4d/1x1 (in-place)
I0703 20:45:45.476245  3512 net.cpp:141] Setting up inception_4d/relu_1x1
I0703 20:45:45.476258  3512 net.cpp:148] Top shape: 10 112 14 14 (219520)
I0703 20:45:45.476263  3512 net.cpp:156] Memory required for data: 460113920
I0703 20:45:45.476269  3512 layer_factory.hpp:77] Creating layer inception_4d/3x3_reduce
I0703 20:45:45.476282  3512 net.cpp:91] Creating Layer inception_4d/3x3_reduce
I0703 20:45:45.476290  3512 net.cpp:425] inception_4d/3x3_reduce <- inception_4c/output_inception_4c/output_0_split_1
I0703 20:45:45.476301  3512 net.cpp:399] inception_4d/3x3_reduce -> inception_4d/3x3_reduce
I0703 20:45:45.478124  3512 net.cpp:141] Setting up inception_4d/3x3_reduce
I0703 20:45:45.478148  3512 net.cpp:148] Top shape: 10 144 14 14 (282240)
I0703 20:45:45.478163  3512 net.cpp:156] Memory required for data: 461242880
I0703 20:45:45.478186  3512 layer_factory.hpp:77] Creating layer inception_4d/relu_3x3_reduce
I0703 20:45:45.478204  3512 net.cpp:91] Creating Layer inception_4d/relu_3x3_reduce
I0703 20:45:45.478219  3512 net.cpp:425] inception_4d/relu_3x3_reduce <- inception_4d/3x3_reduce
I0703 20:45:45.478237  3512 net.cpp:386] inception_4d/relu_3x3_reduce -> inception_4d/3x3_reduce (in-place)
I0703 20:45:45.478497  3512 net.cpp:141] Setting up inception_4d/relu_3x3_reduce
I0703 20:45:45.478513  3512 net.cpp:148] Top shape: 10 144 14 14 (282240)
I0703 20:45:45.478519  3512 net.cpp:156] Memory required for data: 462371840
I0703 20:45:45.478530  3512 layer_factory.hpp:77] Creating layer inception_4d/3x3
I0703 20:45:45.478560  3512 net.cpp:91] Creating Layer inception_4d/3x3
I0703 20:45:45.478574  3512 net.cpp:425] inception_4d/3x3 <- inception_4d/3x3_reduce
I0703 20:45:45.478587  3512 net.cpp:399] inception_4d/3x3 -> inception_4d/3x3
I0703 20:45:45.482208  3512 net.cpp:141] Setting up inception_4d/3x3
I0703 20:45:45.482225  3512 net.cpp:148] Top shape: 10 288 14 14 (564480)
I0703 20:45:45.482241  3512 net.cpp:156] Memory required for data: 464629760
I0703 20:45:45.482259  3512 layer_factory.hpp:77] Creating layer inception_4d/relu_3x3
I0703 20:45:45.482269  3512 net.cpp:91] Creating Layer inception_4d/relu_3x3
I0703 20:45:45.482275  3512 net.cpp:425] inception_4d/relu_3x3 <- inception_4d/3x3
I0703 20:45:45.482300  3512 net.cpp:386] inception_4d/relu_3x3 -> inception_4d/3x3 (in-place)
I0703 20:45:45.482583  3512 net.cpp:141] Setting up inception_4d/relu_3x3
I0703 20:45:45.482596  3512 net.cpp:148] Top shape: 10 288 14 14 (564480)
I0703 20:45:45.482609  3512 net.cpp:156] Memory required for data: 466887680
I0703 20:45:45.482615  3512 layer_factory.hpp:77] Creating layer inception_4d/5x5_reduce
I0703 20:45:45.482628  3512 net.cpp:91] Creating Layer inception_4d/5x5_reduce
I0703 20:45:45.482636  3512 net.cpp:425] inception_4d/5x5_reduce <- inception_4c/output_inception_4c/output_0_split_2
I0703 20:45:45.482656  3512 net.cpp:399] inception_4d/5x5_reduce -> inception_4d/5x5_reduce
I0703 20:45:45.483780  3512 net.cpp:141] Setting up inception_4d/5x5_reduce
I0703 20:45:45.483795  3512 net.cpp:148] Top shape: 10 32 14 14 (62720)
I0703 20:45:45.483801  3512 net.cpp:156] Memory required for data: 467138560
I0703 20:45:45.483810  3512 layer_factory.hpp:77] Creating layer inception_4d/relu_5x5_reduce
I0703 20:45:45.483821  3512 net.cpp:91] Creating Layer inception_4d/relu_5x5_reduce
I0703 20:45:45.483827  3512 net.cpp:425] inception_4d/relu_5x5_reduce <- inception_4d/5x5_reduce
I0703 20:45:45.483835  3512 net.cpp:386] inception_4d/relu_5x5_reduce -> inception_4d/5x5_reduce (in-place)
I0703 20:45:45.483989  3512 net.cpp:141] Setting up inception_4d/relu_5x5_reduce
I0703 20:45:45.484000  3512 net.cpp:148] Top shape: 10 32 14 14 (62720)
I0703 20:45:45.484006  3512 net.cpp:156] Memory required for data: 467389440
I0703 20:45:45.484011  3512 layer_factory.hpp:77] Creating layer inception_4d/5x5
I0703 20:45:45.484025  3512 net.cpp:91] Creating Layer inception_4d/5x5
I0703 20:45:45.484032  3512 net.cpp:425] inception_4d/5x5 <- inception_4d/5x5_reduce
I0703 20:45:45.484041  3512 net.cpp:399] inception_4d/5x5 -> inception_4d/5x5
I0703 20:45:45.485257  3512 net.cpp:141] Setting up inception_4d/5x5
I0703 20:45:45.485272  3512 net.cpp:148] Top shape: 10 64 14 14 (125440)
I0703 20:45:45.485280  3512 net.cpp:156] Memory required for data: 467891200
I0703 20:45:45.485290  3512 layer_factory.hpp:77] Creating layer inception_4d/relu_5x5
I0703 20:45:45.485298  3512 net.cpp:91] Creating Layer inception_4d/relu_5x5
I0703 20:45:45.485306  3512 net.cpp:425] inception_4d/relu_5x5 <- inception_4d/5x5
I0703 20:45:45.485313  3512 net.cpp:386] inception_4d/relu_5x5 -> inception_4d/5x5 (in-place)
I0703 20:45:45.485466  3512 net.cpp:141] Setting up inception_4d/relu_5x5
I0703 20:45:45.485479  3512 net.cpp:148] Top shape: 10 64 14 14 (125440)
I0703 20:45:45.485486  3512 net.cpp:156] Memory required for data: 468392960
I0703 20:45:45.485491  3512 layer_factory.hpp:77] Creating layer inception_4d/pool
I0703 20:45:45.485502  3512 net.cpp:91] Creating Layer inception_4d/pool
I0703 20:45:45.485510  3512 net.cpp:425] inception_4d/pool <- inception_4c/output_inception_4c/output_0_split_3
I0703 20:45:45.485518  3512 net.cpp:399] inception_4d/pool -> inception_4d/pool
I0703 20:45:45.485568  3512 net.cpp:141] Setting up inception_4d/pool
I0703 20:45:45.485577  3512 net.cpp:148] Top shape: 10 512 14 14 (1003520)
I0703 20:45:45.485584  3512 net.cpp:156] Memory required for data: 472407040
I0703 20:45:45.485590  3512 layer_factory.hpp:77] Creating layer inception_4d/pool_proj
I0703 20:45:45.485604  3512 net.cpp:91] Creating Layer inception_4d/pool_proj
I0703 20:45:45.485610  3512 net.cpp:425] inception_4d/pool_proj <- inception_4d/pool
I0703 20:45:45.485620  3512 net.cpp:399] inception_4d/pool_proj -> inception_4d/pool_proj
I0703 20:45:45.486742  3512 net.cpp:141] Setting up inception_4d/pool_proj
I0703 20:45:45.486757  3512 net.cpp:148] Top shape: 10 64 14 14 (125440)
I0703 20:45:45.486763  3512 net.cpp:156] Memory required for data: 472908800
I0703 20:45:45.486773  3512 layer_factory.hpp:77] Creating layer inception_4d/relu_pool_proj
I0703 20:45:45.486781  3512 net.cpp:91] Creating Layer inception_4d/relu_pool_proj
I0703 20:45:45.486788  3512 net.cpp:425] inception_4d/relu_pool_proj <- inception_4d/pool_proj
I0703 20:45:45.486799  3512 net.cpp:386] inception_4d/relu_pool_proj -> inception_4d/pool_proj (in-place)
I0703 20:45:45.487061  3512 net.cpp:141] Setting up inception_4d/relu_pool_proj
I0703 20:45:45.487074  3512 net.cpp:148] Top shape: 10 64 14 14 (125440)
I0703 20:45:45.487082  3512 net.cpp:156] Memory required for data: 473410560
I0703 20:45:45.487087  3512 layer_factory.hpp:77] Creating layer inception_4d/output
I0703 20:45:45.487097  3512 net.cpp:91] Creating Layer inception_4d/output
I0703 20:45:45.487104  3512 net.cpp:425] inception_4d/output <- inception_4d/1x1
I0703 20:45:45.487112  3512 net.cpp:425] inception_4d/output <- inception_4d/3x3
I0703 20:45:45.487119  3512 net.cpp:425] inception_4d/output <- inception_4d/5x5
I0703 20:45:45.487126  3512 net.cpp:425] inception_4d/output <- inception_4d/pool_proj
I0703 20:45:45.487134  3512 net.cpp:399] inception_4d/output -> inception_4d/output
I0703 20:45:45.487167  3512 net.cpp:141] Setting up inception_4d/output
I0703 20:45:45.487177  3512 net.cpp:148] Top shape: 10 528 14 14 (1034880)
I0703 20:45:45.487184  3512 net.cpp:156] Memory required for data: 477550080
I0703 20:45:45.487190  3512 layer_factory.hpp:77] Creating layer inception_4d/output_inception_4d/output_0_split
I0703 20:45:45.487198  3512 net.cpp:91] Creating Layer inception_4d/output_inception_4d/output_0_split
I0703 20:45:45.487205  3512 net.cpp:425] inception_4d/output_inception_4d/output_0_split <- inception_4d/output
I0703 20:45:45.487215  3512 net.cpp:399] inception_4d/output_inception_4d/output_0_split -> inception_4d/output_inception_4d/output_0_split_0
I0703 20:45:45.487226  3512 net.cpp:399] inception_4d/output_inception_4d/output_0_split -> inception_4d/output_inception_4d/output_0_split_1
I0703 20:45:45.487234  3512 net.cpp:399] inception_4d/output_inception_4d/output_0_split -> inception_4d/output_inception_4d/output_0_split_2
I0703 20:45:45.487243  3512 net.cpp:399] inception_4d/output_inception_4d/output_0_split -> inception_4d/output_inception_4d/output_0_split_3
I0703 20:45:45.487309  3512 net.cpp:141] Setting up inception_4d/output_inception_4d/output_0_split
I0703 20:45:45.487319  3512 net.cpp:148] Top shape: 10 528 14 14 (1034880)
I0703 20:45:45.487326  3512 net.cpp:148] Top shape: 10 528 14 14 (1034880)
I0703 20:45:45.487334  3512 net.cpp:148] Top shape: 10 528 14 14 (1034880)
I0703 20:45:45.487340  3512 net.cpp:148] Top shape: 10 528 14 14 (1034880)
I0703 20:45:45.487346  3512 net.cpp:156] Memory required for data: 494108160
I0703 20:45:45.487352  3512 layer_factory.hpp:77] Creating layer inception_4e/1x1
I0703 20:45:45.487365  3512 net.cpp:91] Creating Layer inception_4e/1x1
I0703 20:45:45.487373  3512 net.cpp:425] inception_4e/1x1 <- inception_4d/output_inception_4d/output_0_split_0
I0703 20:45:45.487382  3512 net.cpp:399] inception_4e/1x1 -> inception_4e/1x1
I0703 20:45:45.489362  3512 net.cpp:141] Setting up inception_4e/1x1
I0703 20:45:45.489377  3512 net.cpp:148] Top shape: 10 256 14 14 (501760)
I0703 20:45:45.489383  3512 net.cpp:156] Memory required for data: 496115200
I0703 20:45:45.489393  3512 layer_factory.hpp:77] Creating layer inception_4e/relu_1x1
I0703 20:45:45.489403  3512 net.cpp:91] Creating Layer inception_4e/relu_1x1
I0703 20:45:45.489409  3512 net.cpp:425] inception_4e/relu_1x1 <- inception_4e/1x1
I0703 20:45:45.489418  3512 net.cpp:386] inception_4e/relu_1x1 -> inception_4e/1x1 (in-place)
I0703 20:45:45.489567  3512 net.cpp:141] Setting up inception_4e/relu_1x1
I0703 20:45:45.489580  3512 net.cpp:148] Top shape: 10 256 14 14 (501760)
I0703 20:45:45.489588  3512 net.cpp:156] Memory required for data: 498122240
I0703 20:45:45.489593  3512 layer_factory.hpp:77] Creating layer inception_4e/3x3_reduce
I0703 20:45:45.489608  3512 net.cpp:91] Creating Layer inception_4e/3x3_reduce
I0703 20:45:45.489615  3512 net.cpp:425] inception_4e/3x3_reduce <- inception_4d/output_inception_4d/output_0_split_1
I0703 20:45:45.489624  3512 net.cpp:399] inception_4e/3x3_reduce -> inception_4e/3x3_reduce
I0703 20:45:45.491005  3512 net.cpp:141] Setting up inception_4e/3x3_reduce
I0703 20:45:45.491020  3512 net.cpp:148] Top shape: 10 160 14 14 (313600)
I0703 20:45:45.491030  3512 net.cpp:156] Memory required for data: 499376640
I0703 20:45:45.491040  3512 layer_factory.hpp:77] Creating layer inception_4e/relu_3x3_reduce
I0703 20:45:45.491050  3512 net.cpp:91] Creating Layer inception_4e/relu_3x3_reduce
I0703 20:45:45.491056  3512 net.cpp:425] inception_4e/relu_3x3_reduce <- inception_4e/3x3_reduce
I0703 20:45:45.491066  3512 net.cpp:386] inception_4e/relu_3x3_reduce -> inception_4e/3x3_reduce (in-place)
I0703 20:45:45.491214  3512 net.cpp:141] Setting up inception_4e/relu_3x3_reduce
I0703 20:45:45.491227  3512 net.cpp:148] Top shape: 10 160 14 14 (313600)
I0703 20:45:45.491233  3512 net.cpp:156] Memory required for data: 500631040
I0703 20:45:45.491240  3512 layer_factory.hpp:77] Creating layer inception_4e/3x3
I0703 20:45:45.491252  3512 net.cpp:91] Creating Layer inception_4e/3x3
I0703 20:45:45.491260  3512 net.cpp:425] inception_4e/3x3 <- inception_4e/3x3_reduce
I0703 20:45:45.491268  3512 net.cpp:399] inception_4e/3x3 -> inception_4e/3x3
I0703 20:45:45.495254  3512 net.cpp:141] Setting up inception_4e/3x3
I0703 20:45:45.495271  3512 net.cpp:148] Top shape: 10 320 14 14 (627200)
I0703 20:45:45.495287  3512 net.cpp:156] Memory required for data: 503139840
I0703 20:45:45.495306  3512 layer_factory.hpp:77] Creating layer inception_4e/relu_3x3
I0703 20:45:45.495316  3512 net.cpp:91] Creating Layer inception_4e/relu_3x3
I0703 20:45:45.495323  3512 net.cpp:425] inception_4e/relu_3x3 <- inception_4e/3x3
I0703 20:45:45.495338  3512 net.cpp:386] inception_4e/relu_3x3 -> inception_4e/3x3 (in-place)
I0703 20:45:45.495622  3512 net.cpp:141] Setting up inception_4e/relu_3x3
I0703 20:45:45.495635  3512 net.cpp:148] Top shape: 10 320 14 14 (627200)
I0703 20:45:45.495651  3512 net.cpp:156] Memory required for data: 505648640
I0703 20:45:45.495657  3512 layer_factory.hpp:77] Creating layer inception_4e/5x5_reduce
I0703 20:45:45.495668  3512 net.cpp:91] Creating Layer inception_4e/5x5_reduce
I0703 20:45:45.495676  3512 net.cpp:425] inception_4e/5x5_reduce <- inception_4d/output_inception_4d/output_0_split_2
I0703 20:45:45.495703  3512 net.cpp:399] inception_4e/5x5_reduce -> inception_4e/5x5_reduce
I0703 20:45:45.496722  3512 net.cpp:141] Setting up inception_4e/5x5_reduce
I0703 20:45:45.496737  3512 net.cpp:148] Top shape: 10 32 14 14 (62720)
I0703 20:45:45.496750  3512 net.cpp:156] Memory required for data: 505899520
I0703 20:45:45.496759  3512 layer_factory.hpp:77] Creating layer inception_4e/relu_5x5_reduce
I0703 20:45:45.496769  3512 net.cpp:91] Creating Layer inception_4e/relu_5x5_reduce
I0703 20:45:45.496778  3512 net.cpp:425] inception_4e/relu_5x5_reduce <- inception_4e/5x5_reduce
I0703 20:45:45.496785  3512 net.cpp:386] inception_4e/relu_5x5_reduce -> inception_4e/5x5_reduce (in-place)
I0703 20:45:45.496968  3512 net.cpp:141] Setting up inception_4e/relu_5x5_reduce
I0703 20:45:45.496980  3512 net.cpp:148] Top shape: 10 32 14 14 (62720)
I0703 20:45:45.496986  3512 net.cpp:156] Memory required for data: 506150400
I0703 20:45:45.496992  3512 layer_factory.hpp:77] Creating layer inception_4e/5x5
I0703 20:45:45.497005  3512 net.cpp:91] Creating Layer inception_4e/5x5
I0703 20:45:45.497012  3512 net.cpp:425] inception_4e/5x5 <- inception_4e/5x5_reduce
I0703 20:45:45.497022  3512 net.cpp:399] inception_4e/5x5 -> inception_4e/5x5
I0703 20:45:45.498903  3512 net.cpp:141] Setting up inception_4e/5x5
I0703 20:45:45.498919  3512 net.cpp:148] Top shape: 10 128 14 14 (250880)
I0703 20:45:45.498924  3512 net.cpp:156] Memory required for data: 507153920
I0703 20:45:45.498934  3512 layer_factory.hpp:77] Creating layer inception_4e/relu_5x5
I0703 20:45:45.498941  3512 net.cpp:91] Creating Layer inception_4e/relu_5x5
I0703 20:45:45.498947  3512 net.cpp:425] inception_4e/relu_5x5 <- inception_4e/5x5
I0703 20:45:45.498956  3512 net.cpp:386] inception_4e/relu_5x5 -> inception_4e/5x5 (in-place)
I0703 20:45:45.499114  3512 net.cpp:141] Setting up inception_4e/relu_5x5
I0703 20:45:45.499125  3512 net.cpp:148] Top shape: 10 128 14 14 (250880)
I0703 20:45:45.499137  3512 net.cpp:156] Memory required for data: 508157440
I0703 20:45:45.499143  3512 layer_factory.hpp:77] Creating layer inception_4e/pool
I0703 20:45:45.499153  3512 net.cpp:91] Creating Layer inception_4e/pool
I0703 20:45:45.499161  3512 net.cpp:425] inception_4e/pool <- inception_4d/output_inception_4d/output_0_split_3
I0703 20:45:45.499169  3512 net.cpp:399] inception_4e/pool -> inception_4e/pool
I0703 20:45:45.499219  3512 net.cpp:141] Setting up inception_4e/pool
I0703 20:45:45.499229  3512 net.cpp:148] Top shape: 10 528 14 14 (1034880)
I0703 20:45:45.499235  3512 net.cpp:156] Memory required for data: 512296960
I0703 20:45:45.499240  3512 layer_factory.hpp:77] Creating layer inception_4e/pool_proj
I0703 20:45:45.499253  3512 net.cpp:91] Creating Layer inception_4e/pool_proj
I0703 20:45:45.499259  3512 net.cpp:425] inception_4e/pool_proj <- inception_4e/pool
I0703 20:45:45.499269  3512 net.cpp:399] inception_4e/pool_proj -> inception_4e/pool_proj
I0703 20:45:45.500694  3512 net.cpp:141] Setting up inception_4e/pool_proj
I0703 20:45:45.500707  3512 net.cpp:148] Top shape: 10 128 14 14 (250880)
I0703 20:45:45.500721  3512 net.cpp:156] Memory required for data: 513300480
I0703 20:45:45.500730  3512 layer_factory.hpp:77] Creating layer inception_4e/relu_pool_proj
I0703 20:45:45.500740  3512 net.cpp:91] Creating Layer inception_4e/relu_pool_proj
I0703 20:45:45.500747  3512 net.cpp:425] inception_4e/relu_pool_proj <- inception_4e/pool_proj
I0703 20:45:45.500771  3512 net.cpp:386] inception_4e/relu_pool_proj -> inception_4e/pool_proj (in-place)
I0703 20:45:45.501051  3512 net.cpp:141] Setting up inception_4e/relu_pool_proj
I0703 20:45:45.501065  3512 net.cpp:148] Top shape: 10 128 14 14 (250880)
I0703 20:45:45.501070  3512 net.cpp:156] Memory required for data: 514304000
I0703 20:45:45.501076  3512 layer_factory.hpp:77] Creating layer inception_4e/output
I0703 20:45:45.501085  3512 net.cpp:91] Creating Layer inception_4e/output
I0703 20:45:45.501091  3512 net.cpp:425] inception_4e/output <- inception_4e/1x1
I0703 20:45:45.501098  3512 net.cpp:425] inception_4e/output <- inception_4e/3x3
I0703 20:45:45.501104  3512 net.cpp:425] inception_4e/output <- inception_4e/5x5
I0703 20:45:45.501112  3512 net.cpp:425] inception_4e/output <- inception_4e/pool_proj
I0703 20:45:45.501127  3512 net.cpp:399] inception_4e/output -> inception_4e/output
I0703 20:45:45.501169  3512 net.cpp:141] Setting up inception_4e/output
I0703 20:45:45.501179  3512 net.cpp:148] Top shape: 10 832 14 14 (1630720)
I0703 20:45:45.501184  3512 net.cpp:156] Memory required for data: 520826880
I0703 20:45:45.501190  3512 layer_factory.hpp:77] Creating layer pool4/3x3_s2
I0703 20:45:45.501197  3512 net.cpp:91] Creating Layer pool4/3x3_s2
I0703 20:45:45.501204  3512 net.cpp:425] pool4/3x3_s2 <- inception_4e/output
I0703 20:45:45.501212  3512 net.cpp:399] pool4/3x3_s2 -> pool4/3x3_s2
I0703 20:45:45.501274  3512 net.cpp:141] Setting up pool4/3x3_s2
I0703 20:45:45.501284  3512 net.cpp:148] Top shape: 10 832 7 7 (407680)
I0703 20:45:45.501291  3512 net.cpp:156] Memory required for data: 522457600
I0703 20:45:45.501296  3512 layer_factory.hpp:77] Creating layer pool4/3x3_s2_pool4/3x3_s2_0_split
I0703 20:45:45.501305  3512 net.cpp:91] Creating Layer pool4/3x3_s2_pool4/3x3_s2_0_split
I0703 20:45:45.501312  3512 net.cpp:425] pool4/3x3_s2_pool4/3x3_s2_0_split <- pool4/3x3_s2
I0703 20:45:45.501318  3512 net.cpp:399] pool4/3x3_s2_pool4/3x3_s2_0_split -> pool4/3x3_s2_pool4/3x3_s2_0_split_0
I0703 20:45:45.501329  3512 net.cpp:399] pool4/3x3_s2_pool4/3x3_s2_0_split -> pool4/3x3_s2_pool4/3x3_s2_0_split_1
I0703 20:45:45.501354  3512 net.cpp:399] pool4/3x3_s2_pool4/3x3_s2_0_split -> pool4/3x3_s2_pool4/3x3_s2_0_split_2
I0703 20:45:45.501363  3512 net.cpp:399] pool4/3x3_s2_pool4/3x3_s2_0_split -> pool4/3x3_s2_pool4/3x3_s2_0_split_3
I0703 20:45:45.501428  3512 net.cpp:141] Setting up pool4/3x3_s2_pool4/3x3_s2_0_split
I0703 20:45:45.501438  3512 net.cpp:148] Top shape: 10 832 7 7 (407680)
I0703 20:45:45.501444  3512 net.cpp:148] Top shape: 10 832 7 7 (407680)
I0703 20:45:45.501454  3512 net.cpp:148] Top shape: 10 832 7 7 (407680)
I0703 20:45:45.501461  3512 net.cpp:148] Top shape: 10 832 7 7 (407680)
I0703 20:45:45.501466  3512 net.cpp:156] Memory required for data: 528980480
I0703 20:45:45.501471  3512 layer_factory.hpp:77] Creating layer inception_5a/1x1
I0703 20:45:45.501482  3512 net.cpp:91] Creating Layer inception_5a/1x1
I0703 20:45:45.501489  3512 net.cpp:425] inception_5a/1x1 <- pool4/3x3_s2_pool4/3x3_s2_0_split_0
I0703 20:45:45.501499  3512 net.cpp:399] inception_5a/1x1 -> inception_5a/1x1
I0703 20:45:45.503932  3512 net.cpp:141] Setting up inception_5a/1x1
I0703 20:45:45.503947  3512 net.cpp:148] Top shape: 10 256 7 7 (125440)
I0703 20:45:45.503953  3512 net.cpp:156] Memory required for data: 529482240
I0703 20:45:45.503962  3512 layer_factory.hpp:77] Creating layer inception_5a/relu_1x1
I0703 20:45:45.503969  3512 net.cpp:91] Creating Layer inception_5a/relu_1x1
I0703 20:45:45.503975  3512 net.cpp:425] inception_5a/relu_1x1 <- inception_5a/1x1
I0703 20:45:45.503993  3512 net.cpp:386] inception_5a/relu_1x1 -> inception_5a/1x1 (in-place)
I0703 20:45:45.504174  3512 net.cpp:141] Setting up inception_5a/relu_1x1
I0703 20:45:45.504186  3512 net.cpp:148] Top shape: 10 256 7 7 (125440)
I0703 20:45:45.504192  3512 net.cpp:156] Memory required for data: 529984000
I0703 20:45:45.504197  3512 layer_factory.hpp:77] Creating layer inception_5a/3x3_reduce
I0703 20:45:45.504218  3512 net.cpp:91] Creating Layer inception_5a/3x3_reduce
I0703 20:45:45.504227  3512 net.cpp:425] inception_5a/3x3_reduce <- pool4/3x3_s2_pool4/3x3_s2_0_split_1
I0703 20:45:45.504236  3512 net.cpp:399] inception_5a/3x3_reduce -> inception_5a/3x3_reduce
I0703 20:45:45.507148  3512 net.cpp:141] Setting up inception_5a/3x3_reduce
I0703 20:45:45.507169  3512 net.cpp:148] Top shape: 10 160 7 7 (78400)
I0703 20:45:45.507176  3512 net.cpp:156] Memory required for data: 530297600
I0703 20:45:45.507186  3512 layer_factory.hpp:77] Creating layer inception_5a/relu_3x3_reduce
I0703 20:45:45.507195  3512 net.cpp:91] Creating Layer inception_5a/relu_3x3_reduce
I0703 20:45:45.507201  3512 net.cpp:425] inception_5a/relu_3x3_reduce <- inception_5a/3x3_reduce
I0703 20:45:45.507211  3512 net.cpp:386] inception_5a/relu_3x3_reduce -> inception_5a/3x3_reduce (in-place)
I0703 20:45:45.507375  3512 net.cpp:141] Setting up inception_5a/relu_3x3_reduce
I0703 20:45:45.507386  3512 net.cpp:148] Top shape: 10 160 7 7 (78400)
I0703 20:45:45.507393  3512 net.cpp:156] Memory required for data: 530611200
I0703 20:45:45.507400  3512 layer_factory.hpp:77] Creating layer inception_5a/3x3
I0703 20:45:45.507412  3512 net.cpp:91] Creating Layer inception_5a/3x3
I0703 20:45:45.507419  3512 net.cpp:425] inception_5a/3x3 <- inception_5a/3x3_reduce
I0703 20:45:45.507429  3512 net.cpp:399] inception_5a/3x3 -> inception_5a/3x3
I0703 20:45:45.512053  3512 net.cpp:141] Setting up inception_5a/3x3
I0703 20:45:45.512075  3512 net.cpp:148] Top shape: 10 320 7 7 (156800)
I0703 20:45:45.512081  3512 net.cpp:156] Memory required for data: 531238400
I0703 20:45:45.512091  3512 layer_factory.hpp:77] Creating layer inception_5a/relu_3x3
I0703 20:45:45.512100  3512 net.cpp:91] Creating Layer inception_5a/relu_3x3
I0703 20:45:45.512107  3512 net.cpp:425] inception_5a/relu_3x3 <- inception_5a/3x3
I0703 20:45:45.512116  3512 net.cpp:386] inception_5a/relu_3x3 -> inception_5a/3x3 (in-place)
I0703 20:45:45.512398  3512 net.cpp:141] Setting up inception_5a/relu_3x3
I0703 20:45:45.512410  3512 net.cpp:148] Top shape: 10 320 7 7 (156800)
I0703 20:45:45.512424  3512 net.cpp:156] Memory required for data: 531865600
I0703 20:45:45.512429  3512 layer_factory.hpp:77] Creating layer inception_5a/5x5_reduce
I0703 20:45:45.512444  3512 net.cpp:91] Creating Layer inception_5a/5x5_reduce
I0703 20:45:45.512451  3512 net.cpp:425] inception_5a/5x5_reduce <- pool4/3x3_s2_pool4/3x3_s2_0_split_2
I0703 20:45:45.512477  3512 net.cpp:399] inception_5a/5x5_reduce -> inception_5a/5x5_reduce
I0703 20:45:45.513587  3512 net.cpp:141] Setting up inception_5a/5x5_reduce
I0703 20:45:45.513603  3512 net.cpp:148] Top shape: 10 32 7 7 (15680)
I0703 20:45:45.513617  3512 net.cpp:156] Memory required for data: 531928320
I0703 20:45:45.513627  3512 layer_factory.hpp:77] Creating layer inception_5a/relu_5x5_reduce
I0703 20:45:45.513634  3512 net.cpp:91] Creating Layer inception_5a/relu_5x5_reduce
I0703 20:45:45.513640  3512 net.cpp:425] inception_5a/relu_5x5_reduce <- inception_5a/5x5_reduce
I0703 20:45:45.513649  3512 net.cpp:386] inception_5a/relu_5x5_reduce -> inception_5a/5x5_reduce (in-place)
I0703 20:45:45.513819  3512 net.cpp:141] Setting up inception_5a/relu_5x5_reduce
I0703 20:45:45.513833  3512 net.cpp:148] Top shape: 10 32 7 7 (15680)
I0703 20:45:45.513838  3512 net.cpp:156] Memory required for data: 531991040
I0703 20:45:45.513844  3512 layer_factory.hpp:77] Creating layer inception_5a/5x5
I0703 20:45:45.513854  3512 net.cpp:91] Creating Layer inception_5a/5x5
I0703 20:45:45.513861  3512 net.cpp:425] inception_5a/5x5 <- inception_5a/5x5_reduce
I0703 20:45:45.513870  3512 net.cpp:399] inception_5a/5x5 -> inception_5a/5x5
I0703 20:45:45.515383  3512 net.cpp:141] Setting up inception_5a/5x5
I0703 20:45:45.515399  3512 net.cpp:148] Top shape: 10 128 7 7 (62720)
I0703 20:45:45.515405  3512 net.cpp:156] Memory required for data: 532241920
I0703 20:45:45.515413  3512 layer_factory.hpp:77] Creating layer inception_5a/relu_5x5
I0703 20:45:45.515435  3512 net.cpp:91] Creating Layer inception_5a/relu_5x5
I0703 20:45:45.515444  3512 net.cpp:425] inception_5a/relu_5x5 <- inception_5a/5x5
I0703 20:45:45.515460  3512 net.cpp:386] inception_5a/relu_5x5 -> inception_5a/5x5 (in-place)
I0703 20:45:45.515619  3512 net.cpp:141] Setting up inception_5a/relu_5x5
I0703 20:45:45.515631  3512 net.cpp:148] Top shape: 10 128 7 7 (62720)
I0703 20:45:45.515636  3512 net.cpp:156] Memory required for data: 532492800
I0703 20:45:45.515642  3512 layer_factory.hpp:77] Creating layer inception_5a/pool
I0703 20:45:45.515652  3512 net.cpp:91] Creating Layer inception_5a/pool
I0703 20:45:45.515660  3512 net.cpp:425] inception_5a/pool <- pool4/3x3_s2_pool4/3x3_s2_0_split_3
I0703 20:45:45.515668  3512 net.cpp:399] inception_5a/pool -> inception_5a/pool
I0703 20:45:45.515735  3512 net.cpp:141] Setting up inception_5a/pool
I0703 20:45:45.515746  3512 net.cpp:148] Top shape: 10 832 7 7 (407680)
I0703 20:45:45.515751  3512 net.cpp:156] Memory required for data: 534123520
I0703 20:45:45.515756  3512 layer_factory.hpp:77] Creating layer inception_5a/pool_proj
I0703 20:45:45.515768  3512 net.cpp:91] Creating Layer inception_5a/pool_proj
I0703 20:45:45.515774  3512 net.cpp:425] inception_5a/pool_proj <- inception_5a/pool
I0703 20:45:45.515784  3512 net.cpp:399] inception_5a/pool_proj -> inception_5a/pool_proj
I0703 20:45:45.517655  3512 net.cpp:141] Setting up inception_5a/pool_proj
I0703 20:45:45.517681  3512 net.cpp:148] Top shape: 10 128 7 7 (62720)
I0703 20:45:45.517698  3512 net.cpp:156] Memory required for data: 534374400
I0703 20:45:45.517709  3512 layer_factory.hpp:77] Creating layer inception_5a/relu_pool_proj
I0703 20:45:45.517719  3512 net.cpp:91] Creating Layer inception_5a/relu_pool_proj
I0703 20:45:45.517726  3512 net.cpp:425] inception_5a/relu_pool_proj <- inception_5a/pool_proj
I0703 20:45:45.517735  3512 net.cpp:386] inception_5a/relu_pool_proj -> inception_5a/pool_proj (in-place)
I0703 20:45:45.518007  3512 net.cpp:141] Setting up inception_5a/relu_pool_proj
I0703 20:45:45.518019  3512 net.cpp:148] Top shape: 10 128 7 7 (62720)
I0703 20:45:45.518033  3512 net.cpp:156] Memory required for data: 534625280
I0703 20:45:45.518039  3512 layer_factory.hpp:77] Creating layer inception_5a/output
I0703 20:45:45.518048  3512 net.cpp:91] Creating Layer inception_5a/output
I0703 20:45:45.518054  3512 net.cpp:425] inception_5a/output <- inception_5a/1x1
I0703 20:45:45.518070  3512 net.cpp:425] inception_5a/output <- inception_5a/3x3
I0703 20:45:45.518093  3512 net.cpp:425] inception_5a/output <- inception_5a/5x5
I0703 20:45:45.518100  3512 net.cpp:425] inception_5a/output <- inception_5a/pool_proj
I0703 20:45:45.518108  3512 net.cpp:399] inception_5a/output -> inception_5a/output
I0703 20:45:45.518164  3512 net.cpp:141] Setting up inception_5a/output
I0703 20:45:45.518175  3512 net.cpp:148] Top shape: 10 832 7 7 (407680)
I0703 20:45:45.518189  3512 net.cpp:156] Memory required for data: 536256000
I0703 20:45:45.518203  3512 layer_factory.hpp:77] Creating layer inception_5a/output_inception_5a/output_0_split
I0703 20:45:45.518213  3512 net.cpp:91] Creating Layer inception_5a/output_inception_5a/output_0_split
I0703 20:45:45.518218  3512 net.cpp:425] inception_5a/output_inception_5a/output_0_split <- inception_5a/output
I0703 20:45:45.518225  3512 net.cpp:399] inception_5a/output_inception_5a/output_0_split -> inception_5a/output_inception_5a/output_0_split_0
I0703 20:45:45.518235  3512 net.cpp:399] inception_5a/output_inception_5a/output_0_split -> inception_5a/output_inception_5a/output_0_split_1
I0703 20:45:45.518247  3512 net.cpp:399] inception_5a/output_inception_5a/output_0_split -> inception_5a/output_inception_5a/output_0_split_2
I0703 20:45:45.518256  3512 net.cpp:399] inception_5a/output_inception_5a/output_0_split -> inception_5a/output_inception_5a/output_0_split_3
I0703 20:45:45.518326  3512 net.cpp:141] Setting up inception_5a/output_inception_5a/output_0_split
I0703 20:45:45.518337  3512 net.cpp:148] Top shape: 10 832 7 7 (407680)
I0703 20:45:45.518343  3512 net.cpp:148] Top shape: 10 832 7 7 (407680)
I0703 20:45:45.518348  3512 net.cpp:148] Top shape: 10 832 7 7 (407680)
I0703 20:45:45.518354  3512 net.cpp:148] Top shape: 10 832 7 7 (407680)
I0703 20:45:45.518359  3512 net.cpp:156] Memory required for data: 542778880
I0703 20:45:45.518364  3512 layer_factory.hpp:77] Creating layer inception_5b/1x1
I0703 20:45:45.518376  3512 net.cpp:91] Creating Layer inception_5b/1x1
I0703 20:45:45.518383  3512 net.cpp:425] inception_5b/1x1 <- inception_5a/output_inception_5a/output_0_split_0
I0703 20:45:45.518393  3512 net.cpp:399] inception_5b/1x1 -> inception_5b/1x1
I0703 20:45:45.521559  3512 net.cpp:141] Setting up inception_5b/1x1
I0703 20:45:45.521574  3512 net.cpp:148] Top shape: 10 384 7 7 (188160)
I0703 20:45:45.521580  3512 net.cpp:156] Memory required for data: 543531520
I0703 20:45:45.521589  3512 layer_factory.hpp:77] Creating layer inception_5b/relu_1x1
I0703 20:45:45.521598  3512 net.cpp:91] Creating Layer inception_5b/relu_1x1
I0703 20:45:45.521605  3512 net.cpp:425] inception_5b/relu_1x1 <- inception_5b/1x1
I0703 20:45:45.521612  3512 net.cpp:386] inception_5b/relu_1x1 -> inception_5b/1x1 (in-place)
I0703 20:45:45.521775  3512 net.cpp:141] Setting up inception_5b/relu_1x1
I0703 20:45:45.521787  3512 net.cpp:148] Top shape: 10 384 7 7 (188160)
I0703 20:45:45.521793  3512 net.cpp:156] Memory required for data: 544284160
I0703 20:45:45.521798  3512 layer_factory.hpp:77] Creating layer inception_5b/3x3_reduce
I0703 20:45:45.521811  3512 net.cpp:91] Creating Layer inception_5b/3x3_reduce
I0703 20:45:45.521817  3512 net.cpp:425] inception_5b/3x3_reduce <- inception_5a/output_inception_5a/output_0_split_1
I0703 20:45:45.521827  3512 net.cpp:399] inception_5b/3x3_reduce -> inception_5b/3x3_reduce
I0703 20:45:45.524080  3512 net.cpp:141] Setting up inception_5b/3x3_reduce
I0703 20:45:45.524096  3512 net.cpp:148] Top shape: 10 192 7 7 (94080)
I0703 20:45:45.524109  3512 net.cpp:156] Memory required for data: 544660480
I0703 20:45:45.524118  3512 layer_factory.hpp:77] Creating layer inception_5b/relu_3x3_reduce
I0703 20:45:45.524127  3512 net.cpp:91] Creating Layer inception_5b/relu_3x3_reduce
I0703 20:45:45.524135  3512 net.cpp:425] inception_5b/relu_3x3_reduce <- inception_5b/3x3_reduce
I0703 20:45:45.524152  3512 net.cpp:386] inception_5b/relu_3x3_reduce -> inception_5b/3x3_reduce (in-place)
I0703 20:45:45.524320  3512 net.cpp:141] Setting up inception_5b/relu_3x3_reduce
I0703 20:45:45.524332  3512 net.cpp:148] Top shape: 10 192 7 7 (94080)
I0703 20:45:45.524345  3512 net.cpp:156] Memory required for data: 545036800
I0703 20:45:45.524350  3512 layer_factory.hpp:77] Creating layer inception_5b/3x3
I0703 20:45:45.524363  3512 net.cpp:91] Creating Layer inception_5b/3x3
I0703 20:45:45.524375  3512 net.cpp:425] inception_5b/3x3 <- inception_5b/3x3_reduce
I0703 20:45:45.524386  3512 net.cpp:399] inception_5b/3x3 -> inception_5b/3x3
I0703 20:45:45.529654  3512 net.cpp:141] Setting up inception_5b/3x3
I0703 20:45:45.529691  3512 net.cpp:148] Top shape: 10 384 7 7 (188160)
I0703 20:45:45.529700  3512 net.cpp:156] Memory required for data: 545789440
I0703 20:45:45.529709  3512 layer_factory.hpp:77] Creating layer inception_5b/relu_3x3
I0703 20:45:45.529721  3512 net.cpp:91] Creating Layer inception_5b/relu_3x3
I0703 20:45:45.529736  3512 net.cpp:425] inception_5b/relu_3x3 <- inception_5b/3x3
I0703 20:45:45.529745  3512 net.cpp:386] inception_5b/relu_3x3 -> inception_5b/3x3 (in-place)
I0703 20:45:45.530027  3512 net.cpp:141] Setting up inception_5b/relu_3x3
I0703 20:45:45.530041  3512 net.cpp:148] Top shape: 10 384 7 7 (188160)
I0703 20:45:45.530055  3512 net.cpp:156] Memory required for data: 546542080
I0703 20:45:45.530061  3512 layer_factory.hpp:77] Creating layer inception_5b/5x5_reduce
I0703 20:45:45.530073  3512 net.cpp:91] Creating Layer inception_5b/5x5_reduce
I0703 20:45:45.530082  3512 net.cpp:425] inception_5b/5x5_reduce <- inception_5a/output_inception_5a/output_0_split_2
I0703 20:45:45.530107  3512 net.cpp:399] inception_5b/5x5_reduce -> inception_5b/5x5_reduce
I0703 20:45:45.531311  3512 net.cpp:141] Setting up inception_5b/5x5_reduce
I0703 20:45:45.531324  3512 net.cpp:148] Top shape: 10 48 7 7 (23520)
I0703 20:45:45.531330  3512 net.cpp:156] Memory required for data: 546636160
I0703 20:45:45.531339  3512 layer_factory.hpp:77] Creating layer inception_5b/relu_5x5_reduce
I0703 20:45:45.531347  3512 net.cpp:91] Creating Layer inception_5b/relu_5x5_reduce
I0703 20:45:45.531353  3512 net.cpp:425] inception_5b/relu_5x5_reduce <- inception_5b/5x5_reduce
I0703 20:45:45.531363  3512 net.cpp:386] inception_5b/relu_5x5_reduce -> inception_5b/5x5_reduce (in-place)
I0703 20:45:45.531534  3512 net.cpp:141] Setting up inception_5b/relu_5x5_reduce
I0703 20:45:45.531546  3512 net.cpp:148] Top shape: 10 48 7 7 (23520)
I0703 20:45:45.531553  3512 net.cpp:156] Memory required for data: 546730240
I0703 20:45:45.531558  3512 layer_factory.hpp:77] Creating layer inception_5b/5x5
I0703 20:45:45.531569  3512 net.cpp:91] Creating Layer inception_5b/5x5
I0703 20:45:45.531575  3512 net.cpp:425] inception_5b/5x5 <- inception_5b/5x5_reduce
I0703 20:45:45.531584  3512 net.cpp:399] inception_5b/5x5 -> inception_5b/5x5
I0703 20:45:45.533428  3512 net.cpp:141] Setting up inception_5b/5x5
I0703 20:45:45.533442  3512 net.cpp:148] Top shape: 10 128 7 7 (62720)
I0703 20:45:45.533448  3512 net.cpp:156] Memory required for data: 546981120
I0703 20:45:45.533457  3512 layer_factory.hpp:77] Creating layer inception_5b/relu_5x5
I0703 20:45:45.533464  3512 net.cpp:91] Creating Layer inception_5b/relu_5x5
I0703 20:45:45.533470  3512 net.cpp:425] inception_5b/relu_5x5 <- inception_5b/5x5
I0703 20:45:45.533479  3512 net.cpp:386] inception_5b/relu_5x5 -> inception_5b/5x5 (in-place)
I0703 20:45:45.533649  3512 net.cpp:141] Setting up inception_5b/relu_5x5
I0703 20:45:45.533663  3512 net.cpp:148] Top shape: 10 128 7 7 (62720)
I0703 20:45:45.533668  3512 net.cpp:156] Memory required for data: 547232000
I0703 20:45:45.533679  3512 layer_factory.hpp:77] Creating layer inception_5b/pool
I0703 20:45:45.533687  3512 net.cpp:91] Creating Layer inception_5b/pool
I0703 20:45:45.533694  3512 net.cpp:425] inception_5b/pool <- inception_5a/output_inception_5a/output_0_split_3
I0703 20:45:45.533701  3512 net.cpp:399] inception_5b/pool -> inception_5b/pool
I0703 20:45:45.533771  3512 net.cpp:141] Setting up inception_5b/pool
I0703 20:45:45.533782  3512 net.cpp:148] Top shape: 10 832 7 7 (407680)
I0703 20:45:45.533787  3512 net.cpp:156] Memory required for data: 548862720
I0703 20:45:45.533792  3512 layer_factory.hpp:77] Creating layer inception_5b/pool_proj
I0703 20:45:45.533802  3512 net.cpp:91] Creating Layer inception_5b/pool_proj
I0703 20:45:45.533809  3512 net.cpp:425] inception_5b/pool_proj <- inception_5b/pool
I0703 20:45:45.533819  3512 net.cpp:399] inception_5b/pool_proj -> inception_5b/pool_proj
I0703 20:45:45.535794  3512 net.cpp:141] Setting up inception_5b/pool_proj
I0703 20:45:45.535809  3512 net.cpp:148] Top shape: 10 128 7 7 (62720)
I0703 20:45:45.535815  3512 net.cpp:156] Memory required for data: 549113600
I0703 20:45:45.535825  3512 layer_factory.hpp:77] Creating layer inception_5b/relu_pool_proj
I0703 20:45:45.535835  3512 net.cpp:91] Creating Layer inception_5b/relu_pool_proj
I0703 20:45:45.535842  3512 net.cpp:425] inception_5b/relu_pool_proj <- inception_5b/pool_proj
I0703 20:45:45.535851  3512 net.cpp:386] inception_5b/relu_pool_proj -> inception_5b/pool_proj (in-place)
I0703 20:45:45.536151  3512 net.cpp:141] Setting up inception_5b/relu_pool_proj
I0703 20:45:45.536172  3512 net.cpp:148] Top shape: 10 128 7 7 (62720)
I0703 20:45:45.536178  3512 net.cpp:156] Memory required for data: 549364480
I0703 20:45:45.536185  3512 layer_factory.hpp:77] Creating layer inception_5b/output
I0703 20:45:45.536196  3512 net.cpp:91] Creating Layer inception_5b/output
I0703 20:45:45.536211  3512 net.cpp:425] inception_5b/output <- inception_5b/1x1
I0703 20:45:45.536218  3512 net.cpp:425] inception_5b/output <- inception_5b/3x3
I0703 20:45:45.536226  3512 net.cpp:425] inception_5b/output <- inception_5b/5x5
I0703 20:45:45.536231  3512 net.cpp:425] inception_5b/output <- inception_5b/pool_proj
I0703 20:45:45.536240  3512 net.cpp:399] inception_5b/output -> inception_5b/output
I0703 20:45:45.536293  3512 net.cpp:141] Setting up inception_5b/output
I0703 20:45:45.536304  3512 net.cpp:148] Top shape: 10 1024 7 7 (501760)
I0703 20:45:45.536309  3512 net.cpp:156] Memory required for data: 551371520
I0703 20:45:45.536324  3512 layer_factory.hpp:77] Creating layer pool5/7x7_s1
I0703 20:45:45.536331  3512 net.cpp:91] Creating Layer pool5/7x7_s1
I0703 20:45:45.536337  3512 net.cpp:425] pool5/7x7_s1 <- inception_5b/output
I0703 20:45:45.536346  3512 net.cpp:399] pool5/7x7_s1 -> pool5/7x7_s1
I0703 20:45:45.536592  3512 net.cpp:141] Setting up pool5/7x7_s1
I0703 20:45:45.536615  3512 net.cpp:148] Top shape: 10 1024 1 1 (10240)
I0703 20:45:45.536623  3512 net.cpp:156] Memory required for data: 551412480
I0703 20:45:45.536628  3512 layer_factory.hpp:77] Creating layer pool5/drop_7x7_s1
I0703 20:45:45.536638  3512 net.cpp:91] Creating Layer pool5/drop_7x7_s1
I0703 20:45:45.536648  3512 net.cpp:425] pool5/drop_7x7_s1 <- pool5/7x7_s1
I0703 20:45:45.536654  3512 net.cpp:386] pool5/drop_7x7_s1 -> pool5/7x7_s1 (in-place)
I0703 20:45:45.536700  3512 net.cpp:141] Setting up pool5/drop_7x7_s1
I0703 20:45:45.536710  3512 net.cpp:148] Top shape: 10 1024 1 1 (10240)
I0703 20:45:45.536715  3512 net.cpp:156] Memory required for data: 551453440
I0703 20:45:45.536737  3512 layer_factory.hpp:77] Creating layer loss3/classifier_mod
I0703 20:45:45.536749  3512 net.cpp:91] Creating Layer loss3/classifier_mod
I0703 20:45:45.536756  3512 net.cpp:425] loss3/classifier_mod <- pool5/7x7_s1
I0703 20:45:45.536763  3512 net.cpp:399] loss3/classifier_mod -> loss3/classifier_mod
I0703 20:45:45.537057  3512 net.cpp:141] Setting up loss3/classifier_mod
I0703 20:45:45.537068  3512 net.cpp:148] Top shape: 10 21 (210)
I0703 20:45:45.537075  3512 net.cpp:156] Memory required for data: 551454280
I0703 20:45:45.537083  3512 layer_factory.hpp:77] Creating layer probs
I0703 20:45:45.537091  3512 net.cpp:91] Creating Layer probs
I0703 20:45:45.537097  3512 net.cpp:425] probs <- loss3/classifier_mod
I0703 20:45:45.537106  3512 net.cpp:399] probs -> probs
I0703 20:45:45.537472  3512 net.cpp:141] Setting up probs
I0703 20:45:45.537487  3512 net.cpp:148] Top shape: 10 21 (210)
I0703 20:45:45.537493  3512 net.cpp:156] Memory required for data: 551455120
I0703 20:45:45.537499  3512 net.cpp:219] probs does not need backward computation.
I0703 20:45:45.537505  3512 net.cpp:219] loss3/classifier_mod does not need backward computation.
I0703 20:45:45.537511  3512 net.cpp:219] pool5/drop_7x7_s1 does not need backward computation.
I0703 20:45:45.537516  3512 net.cpp:219] pool5/7x7_s1 does not need backward computation.
…
